node {
  name: "Const"
  op: "Const"
  device: "/device:CPU:0"
  attr {
    key: "_output_shapes"
    value {
      list {
        shape {
          dim {
            size: 188
          }
        }
      }
    }
  }
  attr {
    key: "dtype"
    value {
      type: DT_STRING
    }
  }
  attr {
    key: "value"
    value {
      tensor {
        dtype: DT_STRING
        tensor_shape {
          dim {
            size: 188
          }
        }
        string_val: "/home/mhasek/Documents/CIS680/datasets/cufs/imgs/f-043-01-sz1.png"
        string_val: "/home/mhasek/Documents/CIS680/datasets/cufs/imgs/m1-032-01-sz1.png"
        string_val: "/home/mhasek/Documents/CIS680/datasets/cufs/imgs/m1-037-01-sz1.png"
        string_val: "/home/mhasek/Documents/CIS680/datasets/cufs/imgs/m1-009-01-sz1.png"
        string_val: "/home/mhasek/Documents/CIS680/datasets/cufs/imgs/m1-030-01-sz1.png"
        string_val: "/home/mhasek/Documents/CIS680/datasets/cufs/imgs/f-041-01-sz1.png"
        string_val: "/home/mhasek/Documents/CIS680/datasets/cufs/imgs/M2-061-01-sz1.png"
        string_val: "/home/mhasek/Documents/CIS680/datasets/cufs/imgs/m-083-01-sz1.png"
        string_val: "/home/mhasek/Documents/CIS680/datasets/cufs/imgs/M2-047-01-sz1.png"
        string_val: "/home/mhasek/Documents/CIS680/datasets/cufs/imgs/M2-034-01-sz1.png"
        string_val: "/home/mhasek/Documents/CIS680/datasets/cufs/imgs/m1-025-01-sz1.png"
        string_val: "/home/mhasek/Documents/CIS680/datasets/cufs/imgs/M2-009-01-sz1.png"
        string_val: "/home/mhasek/Documents/CIS680/datasets/cufs/imgs/M2-054-01-sz1.png"
        string_val: "/home/mhasek/Documents/CIS680/datasets/cufs/imgs/F2-037-01-sz1.png"
        string_val: "/home/mhasek/Documents/CIS680/datasets/cufs/imgs/m1-036-01-sz1.png"
        string_val: "/home/mhasek/Documents/CIS680/datasets/cufs/imgs/M2-045-01-sz1.png"
        string_val: "/home/mhasek/Documents/CIS680/datasets/cufs/imgs/m1-010-01-sz1.png"
        string_val: "/home/mhasek/Documents/CIS680/datasets/cufs/imgs/f1-005-01-sz1.png"
        string_val: "/home/mhasek/Documents/CIS680/datasets/cufs/imgs/m1-020-01-sz1.png"
        string_val: "/home/mhasek/Documents/CIS680/datasets/cufs/imgs/M2-019-01-sz1.png"
        string_val: "/home/mhasek/Documents/CIS680/datasets/cufs/imgs/F2-028-01-sz1.png"
        string_val: "/home/mhasek/Documents/CIS680/datasets/cufs/imgs/M2-010-01-sz1.png"
        string_val: "/home/mhasek/Documents/CIS680/datasets/cufs/imgs/F2-031-01-sz1.png"
        string_val: "/home/mhasek/Documents/CIS680/datasets/cufs/imgs/m-064-01-sz1.png"
        string_val: "/home/mhasek/Documents/CIS680/datasets/cufs/imgs/M2-055-01-sz1.png"
        string_val: "/home/mhasek/Documents/CIS680/datasets/cufs/imgs/f1-008-01-sz1.png"
        string_val: "/home/mhasek/Documents/CIS680/datasets/cufs/imgs/m-071-01-sz1.png"
        string_val: "/home/mhasek/Documents/CIS680/datasets/cufs/imgs/m-082-01-sz1.png"
        string_val: "/home/mhasek/Documents/CIS680/datasets/cufs/imgs/m-087-01-sz1.png"
        string_val: "/home/mhasek/Documents/CIS680/datasets/cufs/imgs/M2-015-01-sz1.png"
        string_val: "/home/mhasek/Documents/CIS680/datasets/cufs/imgs/F2-013-01-sz1.png"
        string_val: "/home/mhasek/Documents/CIS680/datasets/cufs/imgs/m-069-01-sz1.png"
        string_val: "/home/mhasek/Documents/CIS680/datasets/cufs/imgs/m-075-01-sz1.png"
        string_val: "/home/mhasek/Documents/CIS680/datasets/cufs/imgs/m-078-01-sz1.png"
        string_val: "/home/mhasek/Documents/CIS680/datasets/cufs/imgs/M2-017-01-sz1.png"
        string_val: "/home/mhasek/Documents/CIS680/datasets/cufs/imgs/M2-044-01-sz1.png"
        string_val: "/home/mhasek/Documents/CIS680/datasets/cufs/imgs/m-072-01-sz1.png"
        string_val: "/home/mhasek/Documents/CIS680/datasets/cufs/imgs/m1-001-01-sz1.png"
        string_val: "/home/mhasek/Documents/CIS680/datasets/cufs/imgs/M2-040-01-sz1.png"
        string_val: "/home/mhasek/Documents/CIS680/datasets/cufs/imgs/f1-011-01-sz1.png"
        string_val: "/home/mhasek/Documents/CIS680/datasets/cufs/imgs/M2-026-01-sz1.png"
        string_val: "/home/mhasek/Documents/CIS680/datasets/cufs/imgs/F2-006-01-sz1.png"
        string_val: "/home/mhasek/Documents/CIS680/datasets/cufs/imgs/m-093-01-sz1.png"
        string_val: "/home/mhasek/Documents/CIS680/datasets/cufs/imgs/m-080-01-sz1.png"
        string_val: "/home/mhasek/Documents/CIS680/datasets/cufs/imgs/f-039-01-sz1.png"
        string_val: "/home/mhasek/Documents/CIS680/datasets/cufs/imgs/M2-042-01-sz1.png"
        string_val: "/home/mhasek/Documents/CIS680/datasets/cufs/imgs/m1-015-01-sz1.png"
        string_val: "/home/mhasek/Documents/CIS680/datasets/cufs/imgs/m-097-01-sz1.png"
        string_val: "/home/mhasek/Documents/CIS680/datasets/cufs/imgs/m1-031-01-sz1.png"
        string_val: "/home/mhasek/Documents/CIS680/datasets/cufs/imgs/F2-009-01-sz1.png"
        string_val: "/home/mhasek/Documents/CIS680/datasets/cufs/imgs/M2-060-01-sz1.png"
        string_val: "/home/mhasek/Documents/CIS680/datasets/cufs/imgs/F2-034-01-sz1.png"
        string_val: "/home/mhasek/Documents/CIS680/datasets/cufs/imgs/F2-036-01-sz1.png"
        string_val: "/home/mhasek/Documents/CIS680/datasets/cufs/imgs/M2-051-01-sz1.png"
        string_val: "/home/mhasek/Documents/CIS680/datasets/cufs/imgs/m1-028-01-sz1.png"
        string_val: "/home/mhasek/Documents/CIS680/datasets/cufs/imgs/M2-056-01-sz1.png"
        string_val: "/home/mhasek/Documents/CIS680/datasets/cufs/imgs/m-095-01-sz1.png"
        string_val: "/home/mhasek/Documents/CIS680/datasets/cufs/imgs/m-088-01-sz1.png"
        string_val: "/home/mhasek/Documents/CIS680/datasets/cufs/imgs/M2-031-01-sz1.png"
        string_val: "/home/mhasek/Documents/CIS680/datasets/cufs/imgs/f1-001-01-sz1.png"
        string_val: "/home/mhasek/Documents/CIS680/datasets/cufs/imgs/M2-046-01-sz1.png"
        string_val: "/home/mhasek/Documents/CIS680/datasets/cufs/imgs/f1-009-01-sz1.png"
        string_val: "/home/mhasek/Documents/CIS680/datasets/cufs/imgs/M2-011-01-sz1.png"
        string_val: "/home/mhasek/Documents/CIS680/datasets/cufs/imgs/M2-024-01-sz1.png"
        string_val: "/home/mhasek/Documents/CIS680/datasets/cufs/imgs/M2-016-01-sz1.png"
        string_val: "/home/mhasek/Documents/CIS680/datasets/cufs/imgs/m-077-01-sz1.png"
        string_val: "/home/mhasek/Documents/CIS680/datasets/cufs/imgs/F2-021-01-sz1.png"
        string_val: "/home/mhasek/Documents/CIS680/datasets/cufs/imgs/f-042-01-sz1.png"
        string_val: "/home/mhasek/Documents/CIS680/datasets/cufs/imgs/m1-041-01-sz1.png"
        string_val: "/home/mhasek/Documents/CIS680/datasets/cufs/imgs/m-086-01-sz1.png"
        string_val: "/home/mhasek/Documents/CIS680/datasets/cufs/imgs/F2-015-01-sz1.png"
        string_val: "/home/mhasek/Documents/CIS680/datasets/cufs/imgs/F2-005-01-sz1.png"
        string_val: "/home/mhasek/Documents/CIS680/datasets/cufs/imgs/M2-028-01-sz1.png"
        string_val: "/home/mhasek/Documents/CIS680/datasets/cufs/imgs/F2-027-01-sz1.png"
        string_val: "/home/mhasek/Documents/CIS680/datasets/cufs/imgs/M2-022-01-sz1.png"
        string_val: "/home/mhasek/Documents/CIS680/datasets/cufs/imgs/f1-007-01-sz1.png"
        string_val: "/home/mhasek/Documents/CIS680/datasets/cufs/imgs/m1-008-01-sz1.png"
        string_val: "/home/mhasek/Documents/CIS680/datasets/cufs/imgs/f1-003-01-sz1.png"
        string_val: "/home/mhasek/Documents/CIS680/datasets/cufs/imgs/F2-022-01-sz1.png"
        string_val: "/home/mhasek/Documents/CIS680/datasets/cufs/imgs/m1-011-01-sz1.png"
        string_val: "/home/mhasek/Documents/CIS680/datasets/cufs/imgs/m1-023-01-sz1.png"
        string_val: "/home/mhasek/Documents/CIS680/datasets/cufs/imgs/m1-017-01-sz1.png"
        string_val: "/home/mhasek/Documents/CIS680/datasets/cufs/imgs/m1-016-01-sz1.png"
        string_val: "/home/mhasek/Documents/CIS680/datasets/cufs/imgs/m1-029-01-sz1.png"
        string_val: "/home/mhasek/Documents/CIS680/datasets/cufs/imgs/f1-012-01-sz1.png"
        string_val: "/home/mhasek/Documents/CIS680/datasets/cufs/imgs/f1-004-01-sz1.png"
        string_val: "/home/mhasek/Documents/CIS680/datasets/cufs/imgs/m1-033-01-sz1.png"
        string_val: "/home/mhasek/Documents/CIS680/datasets/cufs/imgs/M2-023-01-sz1.png"
        string_val: "/home/mhasek/Documents/CIS680/datasets/cufs/imgs/f1-006-01-sz1.png"
        string_val: "/home/mhasek/Documents/CIS680/datasets/cufs/imgs/m-063-01-sz1.png"
        string_val: "/home/mhasek/Documents/CIS680/datasets/cufs/imgs/M2-035-01-sz1.png"
        string_val: "/home/mhasek/Documents/CIS680/datasets/cufs/imgs/m-101-01-sz1.png"
        string_val: "/home/mhasek/Documents/CIS680/datasets/cufs/imgs/f1-014-01-sz1.png"
        string_val: "/home/mhasek/Documents/CIS680/datasets/cufs/imgs/F2-010-01-sz1.png"
        string_val: "/home/mhasek/Documents/CIS680/datasets/cufs/imgs/M2-037-01-sz1.png"
        string_val: "/home/mhasek/Documents/CIS680/datasets/cufs/imgs/m1-002-01-sz1.png"
        string_val: "/home/mhasek/Documents/CIS680/datasets/cufs/imgs/F2-008-01-sz1.png"
        string_val: "/home/mhasek/Documents/CIS680/datasets/cufs/imgs/M2-013-01-sz1.png"
        string_val: "/home/mhasek/Documents/CIS680/datasets/cufs/imgs/M2-018-01-sz1.png"
        string_val: "/home/mhasek/Documents/CIS680/datasets/cufs/imgs/m-089-01-sz1.png"
        string_val: "/home/mhasek/Documents/CIS680/datasets/cufs/imgs/f1-015-01-sz1.png"
        string_val: "/home/mhasek/Documents/CIS680/datasets/cufs/imgs/F2-017-01-sz1.png"
        string_val: "/home/mhasek/Documents/CIS680/datasets/cufs/imgs/F2-011-01-sz1.png"
        string_val: "/home/mhasek/Documents/CIS680/datasets/cufs/imgs/M2-058-01-sz1.png"
        string_val: "/home/mhasek/Documents/CIS680/datasets/cufs/imgs/F2-012-01-sz1.png"
        string_val: "/home/mhasek/Documents/CIS680/datasets/cufs/imgs/m-068-01-sz1.png"
        string_val: "/home/mhasek/Documents/CIS680/datasets/cufs/imgs/m1-013-01-sz1.png"
        string_val: "/home/mhasek/Documents/CIS680/datasets/cufs/imgs/m-085-01-sz1.png"
        string_val: "/home/mhasek/Documents/CIS680/datasets/cufs/imgs/M2-038-01-sz1.png"
        string_val: "/home/mhasek/Documents/CIS680/datasets/cufs/imgs/F2-023-01-sz1.png"
        string_val: "/home/mhasek/Documents/CIS680/datasets/cufs/imgs/f-040-01-sz1.png"
        string_val: "/home/mhasek/Documents/CIS680/datasets/cufs/imgs/m-098-01-sz1.png"
        string_val: "/home/mhasek/Documents/CIS680/datasets/cufs/imgs/m1-024-01-sz1.png"
        string_val: "/home/mhasek/Documents/CIS680/datasets/cufs/imgs/F2-016-01-sz1.png"
        string_val: "/home/mhasek/Documents/CIS680/datasets/cufs/imgs/f1-002-01-sz1.png"
        string_val: "/home/mhasek/Documents/CIS680/datasets/cufs/imgs/M2-039-01-sz1.png"
        string_val: "/home/mhasek/Documents/CIS680/datasets/cufs/imgs/M2-041-01-sz1.png"
        string_val: "/home/mhasek/Documents/CIS680/datasets/cufs/imgs/F2-033-01-sz1.png"
        string_val: "/home/mhasek/Documents/CIS680/datasets/cufs/imgs/m1-038-01-sz1.png"
        string_val: "/home/mhasek/Documents/CIS680/datasets/cufs/imgs/m-090-01-sz1.png"
        string_val: "/home/mhasek/Documents/CIS680/datasets/cufs/imgs/M2-048-01-sz1.png"
        string_val: "/home/mhasek/Documents/CIS680/datasets/cufs/imgs/m1-026-01-sz1.png"
        string_val: "/home/mhasek/Documents/CIS680/datasets/cufs/imgs/m-070-01-sz1.png"
        string_val: "/home/mhasek/Documents/CIS680/datasets/cufs/imgs/M2-014-01-sz1.png"
        string_val: "/home/mhasek/Documents/CIS680/datasets/cufs/imgs/M2-062-01-sz1.png"
        string_val: "/home/mhasek/Documents/CIS680/datasets/cufs/imgs/m1-004-01-sz1.png"
        string_val: "/home/mhasek/Documents/CIS680/datasets/cufs/imgs/M2-036-01-sz1.png"
        string_val: "/home/mhasek/Documents/CIS680/datasets/cufs/imgs/F2-030-01-sz1.png"
        string_val: "/home/mhasek/Documents/CIS680/datasets/cufs/imgs/m-100-01-sz1.png"
        string_val: "/home/mhasek/Documents/CIS680/datasets/cufs/imgs/m-076-01-sz1.png"
        string_val: "/home/mhasek/Documents/CIS680/datasets/cufs/imgs/m1-003-01-sz1.png"
        string_val: "/home/mhasek/Documents/CIS680/datasets/cufs/imgs/M2-043-01-sz1.png"
        string_val: "/home/mhasek/Documents/CIS680/datasets/cufs/imgs/M2-029-01-sz1.png"
        string_val: "/home/mhasek/Documents/CIS680/datasets/cufs/imgs/m1-019-01-sz1.png"
        string_val: "/home/mhasek/Documents/CIS680/datasets/cufs/imgs/M2-033-01-sz1.png"
        string_val: "/home/mhasek/Documents/CIS680/datasets/cufs/imgs/M2-032-01-sz1.png"
        string_val: "/home/mhasek/Documents/CIS680/datasets/cufs/imgs/m1-035-01-sz1.png"
        string_val: "/home/mhasek/Documents/CIS680/datasets/cufs/imgs/M2-050-01-sz1.png"
        string_val: "/home/mhasek/Documents/CIS680/datasets/cufs/imgs/m1-014-01-sz1.png"
        string_val: "/home/mhasek/Documents/CIS680/datasets/cufs/imgs/m1-018-01-sz1.png"
        string_val: "/home/mhasek/Documents/CIS680/datasets/cufs/imgs/M2-027-01-sz1.png"
        string_val: "/home/mhasek/Documents/CIS680/datasets/cufs/imgs/F2-007-01-sz1.png"
        string_val: "/home/mhasek/Documents/CIS680/datasets/cufs/imgs/m1-007-01-sz1.png"
        string_val: "/home/mhasek/Documents/CIS680/datasets/cufs/imgs/M2-021-01-sz1.png"
        string_val: "/home/mhasek/Documents/CIS680/datasets/cufs/imgs/M2-030-01-sz1.png"
        string_val: "/home/mhasek/Documents/CIS680/datasets/cufs/imgs/m-092-01-sz1.png"
        string_val: "/home/mhasek/Documents/CIS680/datasets/cufs/imgs/M2-025-01-sz1.png"
        string_val: "/home/mhasek/Documents/CIS680/datasets/cufs/imgs/M2-049-01-sz1.png"
        string_val: "/home/mhasek/Documents/CIS680/datasets/cufs/imgs/m-081-01-sz1.png"
        string_val: "/home/mhasek/Documents/CIS680/datasets/cufs/imgs/m-067-01-sz1.png"
        string_val: "/home/mhasek/Documents/CIS680/datasets/cufs/imgs/F2-019-01-sz1.png"
        string_val: "/home/mhasek/Documents/CIS680/datasets/cufs/imgs/M2-052-01-sz1.png"
        string_val: "/home/mhasek/Documents/CIS680/datasets/cufs/imgs/m1-006-01-sz1.png"
        string_val: "/home/mhasek/Documents/CIS680/datasets/cufs/imgs/F2-026-01-sz1.png"
        string_val: "/home/mhasek/Documents/CIS680/datasets/cufs/imgs/m-084-01-sz1.png"
        string_val: "/home/mhasek/Documents/CIS680/datasets/cufs/imgs/m-074-01-sz1.png"
        string_val: "/home/mhasek/Documents/CIS680/datasets/cufs/imgs/m-091-01-sz1.png"
        string_val: "/home/mhasek/Documents/CIS680/datasets/cufs/imgs/f1-013-01-sz1.png"
        string_val: "/home/mhasek/Documents/CIS680/datasets/cufs/imgs/F2-018-01-sz1.png"
        string_val: "/home/mhasek/Documents/CIS680/datasets/cufs/imgs/m-099-01-sz1.png"
        string_val: "/home/mhasek/Documents/CIS680/datasets/cufs/imgs/M2-012-01-sz1.png"
        string_val: "/home/mhasek/Documents/CIS680/datasets/cufs/imgs/f1-010-01-sz1.png"
        string_val: "/home/mhasek/Documents/CIS680/datasets/cufs/imgs/m-065-01-sz1.png"
        string_val: "/home/mhasek/Documents/CIS680/datasets/cufs/imgs/F2-014-01-sz1.png"
        string_val: "/home/mhasek/Documents/CIS680/datasets/cufs/imgs/F2-020-01-sz1.png"
        string_val: "/home/mhasek/Documents/CIS680/datasets/cufs/imgs/m1-040-01-sz1.png"
        string_val: "/home/mhasek/Documents/CIS680/datasets/cufs/imgs/m1-027-01-sz1.png"
        string_val: "/home/mhasek/Documents/CIS680/datasets/cufs/imgs/M2-008-01-sz1.png"
        string_val: "/home/mhasek/Documents/CIS680/datasets/cufs/imgs/m1-021-01-sz1.png"
        string_val: "/home/mhasek/Documents/CIS680/datasets/cufs/imgs/F2-024-01-sz1.png"
        string_val: "/home/mhasek/Documents/CIS680/datasets/cufs/imgs/m1-034-01-sz1.png"
        string_val: "/home/mhasek/Documents/CIS680/datasets/cufs/imgs/m-066-01-sz1.png"
        string_val: "/home/mhasek/Documents/CIS680/datasets/cufs/imgs/m1-039-01-sz1.png"
        string_val: "/home/mhasek/Documents/CIS680/datasets/cufs/imgs/F2-025-01-sz1.png"
        string_val: "/home/mhasek/Documents/CIS680/datasets/cufs/imgs/M2-057-01-sz1.png"
        string_val: "/home/mhasek/Documents/CIS680/datasets/cufs/imgs/m-079-01-sz1.png"
        string_val: "/home/mhasek/Documents/CIS680/datasets/cufs/imgs/m-096-01-sz1.png"
        string_val: "/home/mhasek/Documents/CIS680/datasets/cufs/imgs/m1-005-01-sz1.png"
        string_val: "/home/mhasek/Documents/CIS680/datasets/cufs/imgs/M2-053-01-sz1.png"
        string_val: "/home/mhasek/Documents/CIS680/datasets/cufs/imgs/F2-038-01-sz1.png"
        string_val: "/home/mhasek/Documents/CIS680/datasets/cufs/imgs/m-094-01-sz1.png"
        string_val: "/home/mhasek/Documents/CIS680/datasets/cufs/imgs/F2-032-01-sz1.png"
        string_val: "/home/mhasek/Documents/CIS680/datasets/cufs/imgs/M2-059-01-sz1.png"
        string_val: "/home/mhasek/Documents/CIS680/datasets/cufs/imgs/F2-029-01-sz1.png"
        string_val: "/home/mhasek/Documents/CIS680/datasets/cufs/imgs/m1-012-01-sz1.png"
        string_val: "/home/mhasek/Documents/CIS680/datasets/cufs/imgs/m1-022-01-sz1.png"
        string_val: "/home/mhasek/Documents/CIS680/datasets/cufs/imgs/m-073-01-sz1.png"
        string_val: "/home/mhasek/Documents/CIS680/datasets/cufs/imgs/F2-035-01-sz1.png"
      }
    }
  }
}
node {
  name: "input_producer/Shape"
  op: "Const"
  device: "/device:CPU:0"
  attr {
    key: "_output_shapes"
    value {
      list {
        shape {
          dim {
            size: 1
          }
        }
      }
    }
  }
  attr {
    key: "dtype"
    value {
      type: DT_INT32
    }
  }
  attr {
    key: "value"
    value {
      tensor {
        dtype: DT_INT32
        tensor_shape {
          dim {
            size: 1
          }
        }
        int_val: 188
      }
    }
  }
}
node {
  name: "input_producer/strided_slice/stack"
  op: "Const"
  device: "/device:CPU:0"
  attr {
    key: "_output_shapes"
    value {
      list {
        shape {
          dim {
            size: 1
          }
        }
      }
    }
  }
  attr {
    key: "dtype"
    value {
      type: DT_INT32
    }
  }
  attr {
    key: "value"
    value {
      tensor {
        dtype: DT_INT32
        tensor_shape {
          dim {
            size: 1
          }
        }
        int_val: 0
      }
    }
  }
}
node {
  name: "input_producer/strided_slice/stack_1"
  op: "Const"
  device: "/device:CPU:0"
  attr {
    key: "_output_shapes"
    value {
      list {
        shape {
          dim {
            size: 1
          }
        }
      }
    }
  }
  attr {
    key: "dtype"
    value {
      type: DT_INT32
    }
  }
  attr {
    key: "value"
    value {
      tensor {
        dtype: DT_INT32
        tensor_shape {
          dim {
            size: 1
          }
        }
        int_val: 1
      }
    }
  }
}
node {
  name: "input_producer/strided_slice/stack_2"
  op: "Const"
  device: "/device:CPU:0"
  attr {
    key: "_output_shapes"
    value {
      list {
        shape {
          dim {
            size: 1
          }
        }
      }
    }
  }
  attr {
    key: "dtype"
    value {
      type: DT_INT32
    }
  }
  attr {
    key: "value"
    value {
      tensor {
        dtype: DT_INT32
        tensor_shape {
          dim {
            size: 1
          }
        }
        int_val: 1
      }
    }
  }
}
node {
  name: "input_producer/strided_slice"
  op: "StridedSlice"
  input: "input_producer/Shape"
  input: "input_producer/strided_slice/stack"
  input: "input_producer/strided_slice/stack_1"
  input: "input_producer/strided_slice/stack_2"
  device: "/device:CPU:0"
  attr {
    key: "Index"
    value {
      type: DT_INT32
    }
  }
  attr {
    key: "T"
    value {
      type: DT_INT32
    }
  }
  attr {
    key: "_output_shapes"
    value {
      list {
        shape {
        }
      }
    }
  }
  attr {
    key: "begin_mask"
    value {
      i: 0
    }
  }
  attr {
    key: "ellipsis_mask"
    value {
      i: 0
    }
  }
  attr {
    key: "end_mask"
    value {
      i: 0
    }
  }
  attr {
    key: "new_axis_mask"
    value {
      i: 0
    }
  }
  attr {
    key: "shrink_axis_mask"
    value {
      i: 1
    }
  }
}
node {
  name: "input_producer/input_producer/range/start"
  op: "Const"
  device: "/device:CPU:0"
  attr {
    key: "_output_shapes"
    value {
      list {
        shape {
        }
      }
    }
  }
  attr {
    key: "dtype"
    value {
      type: DT_INT32
    }
  }
  attr {
    key: "value"
    value {
      tensor {
        dtype: DT_INT32
        tensor_shape {
        }
        int_val: 0
      }
    }
  }
}
node {
  name: "input_producer/input_producer/range/delta"
  op: "Const"
  device: "/device:CPU:0"
  attr {
    key: "_output_shapes"
    value {
      list {
        shape {
        }
      }
    }
  }
  attr {
    key: "dtype"
    value {
      type: DT_INT32
    }
  }
  attr {
    key: "value"
    value {
      tensor {
        dtype: DT_INT32
        tensor_shape {
        }
        int_val: 1
      }
    }
  }
}
node {
  name: "input_producer/input_producer/range"
  op: "Range"
  input: "input_producer/input_producer/range/start"
  input: "input_producer/strided_slice"
  input: "input_producer/input_producer/range/delta"
  device: "/device:CPU:0"
  attr {
    key: "Tidx"
    value {
      type: DT_INT32
    }
  }
  attr {
    key: "_output_shapes"
    value {
      list {
        shape {
          dim {
            size: -1
          }
        }
      }
    }
  }
}
node {
  name: "input_producer/input_producer/RandomShuffle"
  op: "RandomShuffle"
  input: "input_producer/input_producer/range"
  device: "/device:CPU:0"
  attr {
    key: "T"
    value {
      type: DT_INT32
    }
  }
  attr {
    key: "_output_shapes"
    value {
      list {
        shape {
          dim {
            size: -1
          }
        }
      }
    }
  }
  attr {
    key: "seed"
    value {
      i: 0
    }
  }
  attr {
    key: "seed2"
    value {
      i: 9
    }
  }
}
node {
  name: "input_producer/input_producer"
  op: "FIFOQueueV2"
  device: "/device:CPU:0"
  attr {
    key: "_output_shapes"
    value {
      list {
        shape {
        }
      }
    }
  }
  attr {
    key: "capacity"
    value {
      i: 500
    }
  }
  attr {
    key: "component_types"
    value {
      list {
        type: DT_INT32
      }
    }
  }
  attr {
    key: "container"
    value {
      s: ""
    }
  }
  attr {
    key: "shapes"
    value {
      list {
        shape {
        }
      }
    }
  }
  attr {
    key: "shared_name"
    value {
      s: ""
    }
  }
}
node {
  name: "input_producer/input_producer/input_producer_EnqueueMany"
  op: "QueueEnqueueManyV2"
  input: "input_producer/input_producer"
  input: "input_producer/input_producer/RandomShuffle"
  device: "/device:CPU:0"
  attr {
    key: "Tcomponents"
    value {
      list {
        type: DT_INT32
      }
    }
  }
  attr {
    key: "timeout_ms"
    value {
      i: -1
    }
  }
}
node {
  name: "input_producer/input_producer/input_producer_Close"
  op: "QueueCloseV2"
  input: "input_producer/input_producer"
  device: "/device:CPU:0"
  attr {
    key: "cancel_pending_enqueues"
    value {
      b: false
    }
  }
}
node {
  name: "input_producer/input_producer/input_producer_Close_1"
  op: "QueueCloseV2"
  input: "input_producer/input_producer"
  device: "/device:CPU:0"
  attr {
    key: "cancel_pending_enqueues"
    value {
      b: true
    }
  }
}
node {
  name: "input_producer/input_producer/input_producer_Size"
  op: "QueueSizeV2"
  input: "input_producer/input_producer"
  device: "/device:CPU:0"
  attr {
    key: "_output_shapes"
    value {
      list {
        shape {
        }
      }
    }
  }
}
node {
  name: "input_producer/input_producer/Cast"
  op: "Cast"
  input: "input_producer/input_producer/input_producer_Size"
  device: "/device:CPU:0"
  attr {
    key: "DstT"
    value {
      type: DT_FLOAT
    }
  }
  attr {
    key: "SrcT"
    value {
      type: DT_INT32
    }
  }
  attr {
    key: "_output_shapes"
    value {
      list {
        shape {
        }
      }
    }
  }
}
node {
  name: "input_producer/input_producer/mul/y"
  op: "Const"
  device: "/device:CPU:0"
  attr {
    key: "_output_shapes"
    value {
      list {
        shape {
        }
      }
    }
  }
  attr {
    key: "dtype"
    value {
      type: DT_FLOAT
    }
  }
  attr {
    key: "value"
    value {
      tensor {
        dtype: DT_FLOAT
        tensor_shape {
        }
        float_val: 0.00200000009499
      }
    }
  }
}
node {
  name: "input_producer/input_producer/mul"
  op: "Mul"
  input: "input_producer/input_producer/Cast"
  input: "input_producer/input_producer/mul/y"
  device: "/device:CPU:0"
  attr {
    key: "T"
    value {
      type: DT_FLOAT
    }
  }
  attr {
    key: "_output_shapes"
    value {
      list {
        shape {
        }
      }
    }
  }
}
node {
  name: "input_producer/input_producer/fraction_of_500_full/tags"
  op: "Const"
  device: "/device:CPU:0"
  attr {
    key: "_output_shapes"
    value {
      list {
        shape {
        }
      }
    }
  }
  attr {
    key: "dtype"
    value {
      type: DT_STRING
    }
  }
  attr {
    key: "value"
    value {
      tensor {
        dtype: DT_STRING
        tensor_shape {
        }
        string_val: "input_producer/input_producer/fraction_of_500_full"
      }
    }
  }
}
node {
  name: "input_producer/input_producer/fraction_of_500_full"
  op: "ScalarSummary"
  input: "input_producer/input_producer/fraction_of_500_full/tags"
  input: "input_producer/input_producer/mul"
  device: "/device:CPU:0"
  attr {
    key: "T"
    value {
      type: DT_FLOAT
    }
  }
  attr {
    key: "_output_shapes"
    value {
      list {
        shape {
        }
      }
    }
  }
}
node {
  name: "input_producer/input_producer_Dequeue"
  op: "QueueDequeueV2"
  input: "input_producer/input_producer"
  device: "/device:CPU:0"
  attr {
    key: "_output_shapes"
    value {
      list {
        shape {
        }
      }
    }
  }
  attr {
    key: "component_types"
    value {
      list {
        type: DT_INT32
      }
    }
  }
  attr {
    key: "timeout_ms"
    value {
      i: -1
    }
  }
}
node {
  name: "input_producer/Gather"
  op: "Gather"
  input: "Const"
  input: "input_producer/input_producer_Dequeue"
  device: "/device:CPU:0"
  attr {
    key: "Tindices"
    value {
      type: DT_INT32
    }
  }
  attr {
    key: "Tparams"
    value {
      type: DT_STRING
    }
  }
  attr {
    key: "_output_shapes"
    value {
      list {
        shape {
        }
      }
    }
  }
  attr {
    key: "validate_indices"
    value {
      b: true
    }
  }
}
node {
  name: "ReadFile"
  op: "ReadFile"
  input: "input_producer/Gather"
  device: "/device:CPU:0"
  attr {
    key: "_output_shapes"
    value {
      list {
        shape {
        }
      }
    }
  }
}
node {
  name: "DecodePng"
  op: "DecodePng"
  input: "ReadFile"
  device: "/device:CPU:0"
  attr {
    key: "_output_shapes"
    value {
      list {
        shape {
          dim {
            size: 64
          }
          dim {
            size: 64
          }
          dim {
            size: 1
          }
        }
      }
    }
  }
  attr {
    key: "channels"
    value {
      i: 1
    }
  }
  attr {
    key: "dtype"
    value {
      type: DT_UINT8
    }
  }
}
node {
  name: "Cast"
  op: "Cast"
  input: "DecodePng"
  device: "/device:CPU:0"
  attr {
    key: "DstT"
    value {
      type: DT_FLOAT
    }
  }
  attr {
    key: "SrcT"
    value {
      type: DT_UINT8
    }
  }
  attr {
    key: "_output_shapes"
    value {
      list {
        shape {
          dim {
            size: 64
          }
          dim {
            size: 64
          }
          dim {
            size: 1
          }
        }
      }
    }
  }
}
node {
  name: "div/y"
  op: "Const"
  device: "/device:CPU:0"
  attr {
    key: "_output_shapes"
    value {
      list {
        shape {
        }
      }
    }
  }
  attr {
    key: "dtype"
    value {
      type: DT_FLOAT
    }
  }
  attr {
    key: "value"
    value {
      tensor {
        dtype: DT_FLOAT
        tensor_shape {
        }
        float_val: 127.5
      }
    }
  }
}
node {
  name: "div"
  op: "RealDiv"
  input: "Cast"
  input: "div/y"
  device: "/device:CPU:0"
  attr {
    key: "T"
    value {
      type: DT_FLOAT
    }
  }
  attr {
    key: "_output_shapes"
    value {
      list {
        shape {
          dim {
            size: 64
          }
          dim {
            size: 64
          }
          dim {
            size: 1
          }
        }
      }
    }
  }
}
node {
  name: "sub/y"
  op: "Const"
  device: "/device:CPU:0"
  attr {
    key: "_output_shapes"
    value {
      list {
        shape {
        }
      }
    }
  }
  attr {
    key: "dtype"
    value {
      type: DT_FLOAT
    }
  }
  attr {
    key: "value"
    value {
      tensor {
        dtype: DT_FLOAT
        tensor_shape {
        }
        float_val: 1.0
      }
    }
  }
}
node {
  name: "sub"
  op: "Sub"
  input: "div"
  input: "sub/y"
  device: "/device:CPU:0"
  attr {
    key: "T"
    value {
      type: DT_FLOAT
    }
  }
  attr {
    key: "_output_shapes"
    value {
      list {
        shape {
          dim {
            size: 64
          }
          dim {
            size: 64
          }
          dim {
            size: 1
          }
        }
      }
    }
  }
}
node {
  name: "batch/Const"
  op: "Const"
  device: "/device:CPU:0"
  attr {
    key: "_output_shapes"
    value {
      list {
        shape {
        }
      }
    }
  }
  attr {
    key: "dtype"
    value {
      type: DT_BOOL
    }
  }
  attr {
    key: "value"
    value {
      tensor {
        dtype: DT_BOOL
        tensor_shape {
        }
        bool_val: true
      }
    }
  }
}
node {
  name: "batch/fifo_queue"
  op: "FIFOQueueV2"
  device: "/device:CPU:0"
  attr {
    key: "_output_shapes"
    value {
      list {
        shape {
        }
      }
    }
  }
  attr {
    key: "capacity"
    value {
      i: 500
    }
  }
  attr {
    key: "component_types"
    value {
      list {
        type: DT_FLOAT
      }
    }
  }
  attr {
    key: "container"
    value {
      s: ""
    }
  }
  attr {
    key: "shapes"
    value {
      list {
        shape {
          dim {
            size: 64
          }
          dim {
            size: 64
          }
          dim {
            size: 1
          }
        }
      }
    }
  }
  attr {
    key: "shared_name"
    value {
      s: ""
    }
  }
}
node {
  name: "batch/fifo_queue_enqueue"
  op: "QueueEnqueueV2"
  input: "batch/fifo_queue"
  input: "sub"
  device: "/device:CPU:0"
  attr {
    key: "Tcomponents"
    value {
      list {
        type: DT_FLOAT
      }
    }
  }
  attr {
    key: "timeout_ms"
    value {
      i: -1
    }
  }
}
node {
  name: "batch/fifo_queue_Close"
  op: "QueueCloseV2"
  input: "batch/fifo_queue"
  device: "/device:CPU:0"
  attr {
    key: "cancel_pending_enqueues"
    value {
      b: false
    }
  }
}
node {
  name: "batch/fifo_queue_Close_1"
  op: "QueueCloseV2"
  input: "batch/fifo_queue"
  device: "/device:CPU:0"
  attr {
    key: "cancel_pending_enqueues"
    value {
      b: true
    }
  }
}
node {
  name: "batch/fifo_queue_Size"
  op: "QueueSizeV2"
  input: "batch/fifo_queue"
  device: "/device:CPU:0"
  attr {
    key: "_output_shapes"
    value {
      list {
        shape {
        }
      }
    }
  }
}
node {
  name: "batch/Cast"
  op: "Cast"
  input: "batch/fifo_queue_Size"
  device: "/device:CPU:0"
  attr {
    key: "DstT"
    value {
      type: DT_FLOAT
    }
  }
  attr {
    key: "SrcT"
    value {
      type: DT_INT32
    }
  }
  attr {
    key: "_output_shapes"
    value {
      list {
        shape {
        }
      }
    }
  }
}
node {
  name: "batch/mul/y"
  op: "Const"
  device: "/device:CPU:0"
  attr {
    key: "_output_shapes"
    value {
      list {
        shape {
        }
      }
    }
  }
  attr {
    key: "dtype"
    value {
      type: DT_FLOAT
    }
  }
  attr {
    key: "value"
    value {
      tensor {
        dtype: DT_FLOAT
        tensor_shape {
        }
        float_val: 0.00200000009499
      }
    }
  }
}
node {
  name: "batch/mul"
  op: "Mul"
  input: "batch/Cast"
  input: "batch/mul/y"
  device: "/device:CPU:0"
  attr {
    key: "T"
    value {
      type: DT_FLOAT
    }
  }
  attr {
    key: "_output_shapes"
    value {
      list {
        shape {
        }
      }
    }
  }
}
node {
  name: "batch/fraction_of_500_full/tags"
  op: "Const"
  device: "/device:CPU:0"
  attr {
    key: "_output_shapes"
    value {
      list {
        shape {
        }
      }
    }
  }
  attr {
    key: "dtype"
    value {
      type: DT_STRING
    }
  }
  attr {
    key: "value"
    value {
      tensor {
        dtype: DT_STRING
        tensor_shape {
        }
        string_val: "batch/fraction_of_500_full"
      }
    }
  }
}
node {
  name: "batch/fraction_of_500_full"
  op: "ScalarSummary"
  input: "batch/fraction_of_500_full/tags"
  input: "batch/mul"
  device: "/device:CPU:0"
  attr {
    key: "T"
    value {
      type: DT_FLOAT
    }
  }
  attr {
    key: "_output_shapes"
    value {
      list {
        shape {
        }
      }
    }
  }
}
node {
  name: "batch/n"
  op: "Const"
  device: "/device:CPU:0"
  attr {
    key: "_output_shapes"
    value {
      list {
        shape {
        }
      }
    }
  }
  attr {
    key: "dtype"
    value {
      type: DT_INT32
    }
  }
  attr {
    key: "value"
    value {
      tensor {
        dtype: DT_INT32
        tensor_shape {
        }
        int_val: 50
      }
    }
  }
}
node {
  name: "batch"
  op: "QueueDequeueManyV2"
  input: "batch/fifo_queue"
  input: "batch/n"
  device: "/device:CPU:0"
  attr {
    key: "_output_shapes"
    value {
      list {
        shape {
          dim {
            size: 50
          }
          dim {
            size: 64
          }
          dim {
            size: 64
          }
          dim {
            size: 1
          }
        }
      }
    }
  }
  attr {
    key: "component_types"
    value {
      list {
        type: DT_FLOAT
      }
    }
  }
  attr {
    key: "timeout_ms"
    value {
      i: -1
    }
  }
}
node {
  name: "step/initial_value"
  op: "Const"
  attr {
    key: "_output_shapes"
    value {
      list {
        shape {
        }
      }
    }
  }
  attr {
    key: "dtype"
    value {
      type: DT_INT32
    }
  }
  attr {
    key: "value"
    value {
      tensor {
        dtype: DT_INT32
        tensor_shape {
        }
        int_val: 0
      }
    }
  }
}
node {
  name: "step"
  op: "VariableV2"
  attr {
    key: "_output_shapes"
    value {
      list {
        shape {
        }
      }
    }
  }
  attr {
    key: "container"
    value {
      s: ""
    }
  }
  attr {
    key: "dtype"
    value {
      type: DT_INT32
    }
  }
  attr {
    key: "shape"
    value {
      shape {
      }
    }
  }
  attr {
    key: "shared_name"
    value {
      s: ""
    }
  }
}
node {
  name: "step/Assign"
  op: "Assign"
  input: "step"
  input: "step/initial_value"
  attr {
    key: "T"
    value {
      type: DT_INT32
    }
  }
  attr {
    key: "_class"
    value {
      list {
        s: "loc:@step"
      }
    }
  }
  attr {
    key: "_output_shapes"
    value {
      list {
        shape {
        }
      }
    }
  }
  attr {
    key: "use_locking"
    value {
      b: true
    }
  }
  attr {
    key: "validate_shape"
    value {
      b: true
    }
  }
}
node {
  name: "step/read"
  op: "Identity"
  input: "step"
  attr {
    key: "T"
    value {
      type: DT_INT32
    }
  }
  attr {
    key: "_class"
    value {
      list {
        s: "loc:@step"
      }
    }
  }
  attr {
    key: "_output_shapes"
    value {
      list {
        shape {
        }
      }
    }
  }
}
node {
  name: "lr/initial_value"
  op: "Const"
  attr {
    key: "_output_shapes"
    value {
      list {
        shape {
        }
      }
    }
  }
  attr {
    key: "dtype"
    value {
      type: DT_FLOAT
    }
  }
  attr {
    key: "value"
    value {
      tensor {
        dtype: DT_FLOAT
        tensor_shape {
        }
        float_val: 0.0010000000475
      }
    }
  }
}
node {
  name: "lr"
  op: "VariableV2"
  attr {
    key: "_output_shapes"
    value {
      list {
        shape {
        }
      }
    }
  }
  attr {
    key: "container"
    value {
      s: ""
    }
  }
  attr {
    key: "dtype"
    value {
      type: DT_FLOAT
    }
  }
  attr {
    key: "shape"
    value {
      shape {
      }
    }
  }
  attr {
    key: "shared_name"
    value {
      s: ""
    }
  }
}
node {
  name: "lr/Assign"
  op: "Assign"
  input: "lr"
  input: "lr/initial_value"
  attr {
    key: "T"
    value {
      type: DT_FLOAT
    }
  }
  attr {
    key: "_class"
    value {
      list {
        s: "loc:@lr"
      }
    }
  }
  attr {
    key: "_output_shapes"
    value {
      list {
        shape {
        }
      }
    }
  }
  attr {
    key: "use_locking"
    value {
      b: true
    }
  }
  attr {
    key: "validate_shape"
    value {
      b: true
    }
  }
}
node {
  name: "lr/read"
  op: "Identity"
  input: "lr"
  attr {
    key: "T"
    value {
      type: DT_FLOAT
    }
  }
  attr {
    key: "_class"
    value {
      list {
        s: "loc:@lr"
      }
    }
  }
  attr {
    key: "_output_shapes"
    value {
      list {
        shape {
        }
      }
    }
  }
}
node {
  name: "mul/y"
  op: "Const"
  attr {
    key: "_output_shapes"
    value {
      list {
        shape {
        }
      }
    }
  }
  attr {
    key: "dtype"
    value {
      type: DT_FLOAT
    }
  }
  attr {
    key: "value"
    value {
      tensor {
        dtype: DT_FLOAT
        tensor_shape {
        }
        float_val: 0.954095482826
      }
    }
  }
}
node {
  name: "mul"
  op: "Mul"
  input: "lr/read"
  input: "mul/y"
  attr {
    key: "T"
    value {
      type: DT_FLOAT
    }
  }
  attr {
    key: "_output_shapes"
    value {
      list {
        shape {
        }
      }
    }
  }
}
node {
  name: "lr_update"
  op: "Assign"
  input: "lr"
  input: "mul"
  attr {
    key: "T"
    value {
      type: DT_FLOAT
    }
  }
  attr {
    key: "_class"
    value {
      list {
        s: "loc:@lr"
      }
    }
  }
  attr {
    key: "_output_shapes"
    value {
      list {
        shape {
        }
      }
    }
  }
  attr {
    key: "use_locking"
    value {
      b: true
    }
  }
  attr {
    key: "validate_shape"
    value {
      b: true
    }
  }
}
node {
  name: "random_uniform/shape"
  op: "Const"
  attr {
    key: "_output_shapes"
    value {
      list {
        shape {
          dim {
            size: 2
          }
        }
      }
    }
  }
  attr {
    key: "dtype"
    value {
      type: DT_INT32
    }
  }
  attr {
    key: "value"
    value {
      tensor {
        dtype: DT_INT32
        tensor_shape {
          dim {
            size: 2
          }
        }
        tensor_content: "2\000\000\000d\000\000\000"
      }
    }
  }
}
node {
  name: "random_uniform/min"
  op: "Const"
  attr {
    key: "_output_shapes"
    value {
      list {
        shape {
        }
      }
    }
  }
  attr {
    key: "dtype"
    value {
      type: DT_FLOAT
    }
  }
  attr {
    key: "value"
    value {
      tensor {
        dtype: DT_FLOAT
        tensor_shape {
        }
        float_val: -1.0
      }
    }
  }
}
node {
  name: "random_uniform/max"
  op: "Const"
  attr {
    key: "_output_shapes"
    value {
      list {
        shape {
        }
      }
    }
  }
  attr {
    key: "dtype"
    value {
      type: DT_FLOAT
    }
  }
  attr {
    key: "value"
    value {
      tensor {
        dtype: DT_FLOAT
        tensor_shape {
        }
        float_val: 1.0
      }
    }
  }
}
node {
  name: "random_uniform/RandomUniform"
  op: "RandomUniform"
  input: "random_uniform/shape"
  attr {
    key: "T"
    value {
      type: DT_INT32
    }
  }
  attr {
    key: "_output_shapes"
    value {
      list {
        shape {
          dim {
            size: 50
          }
          dim {
            size: 100
          }
        }
      }
    }
  }
  attr {
    key: "dtype"
    value {
      type: DT_FLOAT
    }
  }
  attr {
    key: "seed"
    value {
      i: 0
    }
  }
  attr {
    key: "seed2"
    value {
      i: 56
    }
  }
}
node {
  name: "random_uniform/sub"
  op: "Sub"
  input: "random_uniform/max"
  input: "random_uniform/min"
  attr {
    key: "T"
    value {
      type: DT_FLOAT
    }
  }
  attr {
    key: "_output_shapes"
    value {
      list {
        shape {
        }
      }
    }
  }
}
node {
  name: "random_uniform/mul"
  op: "Mul"
  input: "random_uniform/RandomUniform"
  input: "random_uniform/sub"
  attr {
    key: "T"
    value {
      type: DT_FLOAT
    }
  }
  attr {
    key: "_output_shapes"
    value {
      list {
        shape {
          dim {
            size: 50
          }
          dim {
            size: 100
          }
        }
      }
    }
  }
}
node {
  name: "random_uniform"
  op: "Add"
  input: "random_uniform/mul"
  input: "random_uniform/min"
  attr {
    key: "T"
    value {
      type: DT_FLOAT
    }
  }
  attr {
    key: "_output_shapes"
    value {
      list {
        shape {
          dim {
            size: 50
          }
          dim {
            size: 100
          }
        }
      }
    }
  }
}
node {
  name: "GEN/fc1/weights/Initializer/truncated_normal/shape"
  op: "Const"
  attr {
    key: "_class"
    value {
      list {
        s: "loc:@GEN/fc1/weights"
      }
    }
  }
  attr {
    key: "_output_shapes"
    value {
      list {
        shape {
          dim {
            size: 2
          }
        }
      }
    }
  }
  attr {
    key: "dtype"
    value {
      type: DT_INT32
    }
  }
  attr {
    key: "value"
    value {
      tensor {
        dtype: DT_INT32
        tensor_shape {
          dim {
            size: 2
          }
        }
        tensor_content: "d\000\000\000\000\001\000\000"
      }
    }
  }
}
node {
  name: "GEN/fc1/weights/Initializer/truncated_normal/mean"
  op: "Const"
  attr {
    key: "_class"
    value {
      list {
        s: "loc:@GEN/fc1/weights"
      }
    }
  }
  attr {
    key: "_output_shapes"
    value {
      list {
        shape {
        }
      }
    }
  }
  attr {
    key: "dtype"
    value {
      type: DT_FLOAT
    }
  }
  attr {
    key: "value"
    value {
      tensor {
        dtype: DT_FLOAT
        tensor_shape {
        }
        float_val: 0.0
      }
    }
  }
}
node {
  name: "GEN/fc1/weights/Initializer/truncated_normal/stddev"
  op: "Const"
  attr {
    key: "_class"
    value {
      list {
        s: "loc:@GEN/fc1/weights"
      }
    }
  }
  attr {
    key: "_output_shapes"
    value {
      list {
        shape {
        }
      }
    }
  }
  attr {
    key: "dtype"
    value {
      type: DT_FLOAT
    }
  }
  attr {
    key: "value"
    value {
      tensor {
        dtype: DT_FLOAT
        tensor_shape {
        }
        float_val: 0.161245152354
      }
    }
  }
}
node {
  name: "GEN/fc1/weights/Initializer/truncated_normal/TruncatedNormal"
  op: "TruncatedNormal"
  input: "GEN/fc1/weights/Initializer/truncated_normal/shape"
  attr {
    key: "T"
    value {
      type: DT_INT32
    }
  }
  attr {
    key: "_class"
    value {
      list {
        s: "loc:@GEN/fc1/weights"
      }
    }
  }
  attr {
    key: "_output_shapes"
    value {
      list {
        shape {
          dim {
            size: 100
          }
          dim {
            size: 256
          }
        }
      }
    }
  }
  attr {
    key: "dtype"
    value {
      type: DT_FLOAT
    }
  }
  attr {
    key: "seed"
    value {
      i: 0
    }
  }
  attr {
    key: "seed2"
    value {
      i: 63
    }
  }
}
node {
  name: "GEN/fc1/weights/Initializer/truncated_normal/mul"
  op: "Mul"
  input: "GEN/fc1/weights/Initializer/truncated_normal/TruncatedNormal"
  input: "GEN/fc1/weights/Initializer/truncated_normal/stddev"
  attr {
    key: "T"
    value {
      type: DT_FLOAT
    }
  }
  attr {
    key: "_class"
    value {
      list {
        s: "loc:@GEN/fc1/weights"
      }
    }
  }
  attr {
    key: "_output_shapes"
    value {
      list {
        shape {
          dim {
            size: 100
          }
          dim {
            size: 256
          }
        }
      }
    }
  }
}
node {
  name: "GEN/fc1/weights/Initializer/truncated_normal"
  op: "Add"
  input: "GEN/fc1/weights/Initializer/truncated_normal/mul"
  input: "GEN/fc1/weights/Initializer/truncated_normal/mean"
  attr {
    key: "T"
    value {
      type: DT_FLOAT
    }
  }
  attr {
    key: "_class"
    value {
      list {
        s: "loc:@GEN/fc1/weights"
      }
    }
  }
  attr {
    key: "_output_shapes"
    value {
      list {
        shape {
          dim {
            size: 100
          }
          dim {
            size: 256
          }
        }
      }
    }
  }
}
node {
  name: "GEN/fc1/weights"
  op: "VariableV2"
  attr {
    key: "_class"
    value {
      list {
        s: "loc:@GEN/fc1/weights"
      }
    }
  }
  attr {
    key: "_output_shapes"
    value {
      list {
        shape {
          dim {
            size: 100
          }
          dim {
            size: 256
          }
        }
      }
    }
  }
  attr {
    key: "container"
    value {
      s: ""
    }
  }
  attr {
    key: "dtype"
    value {
      type: DT_FLOAT
    }
  }
  attr {
    key: "shape"
    value {
      shape {
        dim {
          size: 100
        }
        dim {
          size: 256
        }
      }
    }
  }
  attr {
    key: "shared_name"
    value {
      s: ""
    }
  }
}
node {
  name: "GEN/fc1/weights/Assign"
  op: "Assign"
  input: "GEN/fc1/weights"
  input: "GEN/fc1/weights/Initializer/truncated_normal"
  attr {
    key: "T"
    value {
      type: DT_FLOAT
    }
  }
  attr {
    key: "_class"
    value {
      list {
        s: "loc:@GEN/fc1/weights"
      }
    }
  }
  attr {
    key: "_output_shapes"
    value {
      list {
        shape {
          dim {
            size: 100
          }
          dim {
            size: 256
          }
        }
      }
    }
  }
  attr {
    key: "use_locking"
    value {
      b: true
    }
  }
  attr {
    key: "validate_shape"
    value {
      b: true
    }
  }
}
node {
  name: "GEN/fc1/weights/read"
  op: "Identity"
  input: "GEN/fc1/weights"
  attr {
    key: "T"
    value {
      type: DT_FLOAT
    }
  }
  attr {
    key: "_class"
    value {
      list {
        s: "loc:@GEN/fc1/weights"
      }
    }
  }
  attr {
    key: "_output_shapes"
    value {
      list {
        shape {
          dim {
            size: 100
          }
          dim {
            size: 256
          }
        }
      }
    }
  }
}
node {
  name: "GEN/fc1/MatMul"
  op: "MatMul"
  input: "random_uniform"
  input: "GEN/fc1/weights/read"
  attr {
    key: "T"
    value {
      type: DT_FLOAT
    }
  }
  attr {
    key: "_output_shapes"
    value {
      list {
        shape {
          dim {
            size: 50
          }
          dim {
            size: 256
          }
        }
      }
    }
  }
  attr {
    key: "transpose_a"
    value {
      b: false
    }
  }
  attr {
    key: "transpose_b"
    value {
      b: false
    }
  }
}
node {
  name: "GEN/fc1/beta/Initializer/Const"
  op: "Const"
  attr {
    key: "_class"
    value {
      list {
        s: "loc:@GEN/fc1/beta"
      }
    }
  }
  attr {
    key: "_output_shapes"
    value {
      list {
        shape {
          dim {
            size: 256
          }
        }
      }
    }
  }
  attr {
    key: "dtype"
    value {
      type: DT_FLOAT
    }
  }
  attr {
    key: "value"
    value {
      tensor {
        dtype: DT_FLOAT
        tensor_shape {
          dim {
            size: 256
          }
        }
        float_val: 0.0
      }
    }
  }
}
node {
  name: "GEN/fc1/beta"
  op: "VariableV2"
  attr {
    key: "_class"
    value {
      list {
        s: "loc:@GEN/fc1/beta"
      }
    }
  }
  attr {
    key: "_output_shapes"
    value {
      list {
        shape {
          dim {
            size: 256
          }
        }
      }
    }
  }
  attr {
    key: "container"
    value {
      s: ""
    }
  }
  attr {
    key: "dtype"
    value {
      type: DT_FLOAT
    }
  }
  attr {
    key: "shape"
    value {
      shape {
        dim {
          size: 256
        }
      }
    }
  }
  attr {
    key: "shared_name"
    value {
      s: ""
    }
  }
}
node {
  name: "GEN/fc1/beta/Assign"
  op: "Assign"
  input: "GEN/fc1/beta"
  input: "GEN/fc1/beta/Initializer/Const"
  attr {
    key: "T"
    value {
      type: DT_FLOAT
    }
  }
  attr {
    key: "_class"
    value {
      list {
        s: "loc:@GEN/fc1/beta"
      }
    }
  }
  attr {
    key: "_output_shapes"
    value {
      list {
        shape {
          dim {
            size: 256
          }
        }
      }
    }
  }
  attr {
    key: "use_locking"
    value {
      b: true
    }
  }
  attr {
    key: "validate_shape"
    value {
      b: true
    }
  }
}
node {
  name: "GEN/fc1/beta/read"
  op: "Identity"
  input: "GEN/fc1/beta"
  attr {
    key: "T"
    value {
      type: DT_FLOAT
    }
  }
  attr {
    key: "_class"
    value {
      list {
        s: "loc:@GEN/fc1/beta"
      }
    }
  }
  attr {
    key: "_output_shapes"
    value {
      list {
        shape {
          dim {
            size: 256
          }
        }
      }
    }
  }
}
node {
  name: "GEN/fc1/gamma/Initializer/Const"
  op: "Const"
  attr {
    key: "_class"
    value {
      list {
        s: "loc:@GEN/fc1/gamma"
      }
    }
  }
  attr {
    key: "_output_shapes"
    value {
      list {
        shape {
          dim {
            size: 256
          }
        }
      }
    }
  }
  attr {
    key: "dtype"
    value {
      type: DT_FLOAT
    }
  }
  attr {
    key: "value"
    value {
      tensor {
        dtype: DT_FLOAT
        tensor_shape {
          dim {
            size: 256
          }
        }
        float_val: 1.0
      }
    }
  }
}
node {
  name: "GEN/fc1/gamma"
  op: "VariableV2"
  attr {
    key: "_class"
    value {
      list {
        s: "loc:@GEN/fc1/gamma"
      }
    }
  }
  attr {
    key: "_output_shapes"
    value {
      list {
        shape {
          dim {
            size: 256
          }
        }
      }
    }
  }
  attr {
    key: "container"
    value {
      s: ""
    }
  }
  attr {
    key: "dtype"
    value {
      type: DT_FLOAT
    }
  }
  attr {
    key: "shape"
    value {
      shape {
        dim {
          size: 256
        }
      }
    }
  }
  attr {
    key: "shared_name"
    value {
      s: ""
    }
  }
}
node {
  name: "GEN/fc1/gamma/Assign"
  op: "Assign"
  input: "GEN/fc1/gamma"
  input: "GEN/fc1/gamma/Initializer/Const"
  attr {
    key: "T"
    value {
      type: DT_FLOAT
    }
  }
  attr {
    key: "_class"
    value {
      list {
        s: "loc:@GEN/fc1/gamma"
      }
    }
  }
  attr {
    key: "_output_shapes"
    value {
      list {
        shape {
          dim {
            size: 256
          }
        }
      }
    }
  }
  attr {
    key: "use_locking"
    value {
      b: true
    }
  }
  attr {
    key: "validate_shape"
    value {
      b: true
    }
  }
}
node {
  name: "GEN/fc1/gamma/read"
  op: "Identity"
  input: "GEN/fc1/gamma"
  attr {
    key: "T"
    value {
      type: DT_FLOAT
    }
  }
  attr {
    key: "_class"
    value {
      list {
        s: "loc:@GEN/fc1/gamma"
      }
    }
  }
  attr {
    key: "_output_shapes"
    value {
      list {
        shape {
          dim {
            size: 256
          }
        }
      }
    }
  }
}
node {
  name: "GEN/fc1/moving_mean/Initializer/Const"
  op: "Const"
  attr {
    key: "_class"
    value {
      list {
        s: "loc:@GEN/fc1/moving_mean"
      }
    }
  }
  attr {
    key: "_output_shapes"
    value {
      list {
        shape {
          dim {
            size: 256
          }
        }
      }
    }
  }
  attr {
    key: "dtype"
    value {
      type: DT_FLOAT
    }
  }
  attr {
    key: "value"
    value {
      tensor {
        dtype: DT_FLOAT
        tensor_shape {
          dim {
            size: 256
          }
        }
        float_val: 0.0
      }
    }
  }
}
node {
  name: "GEN/fc1/moving_mean"
  op: "VariableV2"
  attr {
    key: "_class"
    value {
      list {
        s: "loc:@GEN/fc1/moving_mean"
      }
    }
  }
  attr {
    key: "_output_shapes"
    value {
      list {
        shape {
          dim {
            size: 256
          }
        }
      }
    }
  }
  attr {
    key: "container"
    value {
      s: ""
    }
  }
  attr {
    key: "dtype"
    value {
      type: DT_FLOAT
    }
  }
  attr {
    key: "shape"
    value {
      shape {
        dim {
          size: 256
        }
      }
    }
  }
  attr {
    key: "shared_name"
    value {
      s: ""
    }
  }
}
node {
  name: "GEN/fc1/moving_mean/Assign"
  op: "Assign"
  input: "GEN/fc1/moving_mean"
  input: "GEN/fc1/moving_mean/Initializer/Const"
  attr {
    key: "T"
    value {
      type: DT_FLOAT
    }
  }
  attr {
    key: "_class"
    value {
      list {
        s: "loc:@GEN/fc1/moving_mean"
      }
    }
  }
  attr {
    key: "_output_shapes"
    value {
      list {
        shape {
          dim {
            size: 256
          }
        }
      }
    }
  }
  attr {
    key: "use_locking"
    value {
      b: true
    }
  }
  attr {
    key: "validate_shape"
    value {
      b: true
    }
  }
}
node {
  name: "GEN/fc1/moving_mean/read"
  op: "Identity"
  input: "GEN/fc1/moving_mean"
  attr {
    key: "T"
    value {
      type: DT_FLOAT
    }
  }
  attr {
    key: "_class"
    value {
      list {
        s: "loc:@GEN/fc1/moving_mean"
      }
    }
  }
  attr {
    key: "_output_shapes"
    value {
      list {
        shape {
          dim {
            size: 256
          }
        }
      }
    }
  }
}
node {
  name: "GEN/fc1/moving_var/Initializer/Const"
  op: "Const"
  attr {
    key: "_class"
    value {
      list {
        s: "loc:@GEN/fc1/moving_var"
      }
    }
  }
  attr {
    key: "_output_shapes"
    value {
      list {
        shape {
          dim {
            size: 256
          }
        }
      }
    }
  }
  attr {
    key: "dtype"
    value {
      type: DT_FLOAT
    }
  }
  attr {
    key: "value"
    value {
      tensor {
        dtype: DT_FLOAT
        tensor_shape {
          dim {
            size: 256
          }
        }
        float_val: 1.0
      }
    }
  }
}
node {
  name: "GEN/fc1/moving_var"
  op: "VariableV2"
  attr {
    key: "_class"
    value {
      list {
        s: "loc:@GEN/fc1/moving_var"
      }
    }
  }
  attr {
    key: "_output_shapes"
    value {
      list {
        shape {
          dim {
            size: 256
          }
        }
      }
    }
  }
  attr {
    key: "container"
    value {
      s: ""
    }
  }
  attr {
    key: "dtype"
    value {
      type: DT_FLOAT
    }
  }
  attr {
    key: "shape"
    value {
      shape {
        dim {
          size: 256
        }
      }
    }
  }
  attr {
    key: "shared_name"
    value {
      s: ""
    }
  }
}
node {
  name: "GEN/fc1/moving_var/Assign"
  op: "Assign"
  input: "GEN/fc1/moving_var"
  input: "GEN/fc1/moving_var/Initializer/Const"
  attr {
    key: "T"
    value {
      type: DT_FLOAT
    }
  }
  attr {
    key: "_class"
    value {
      list {
        s: "loc:@GEN/fc1/moving_var"
      }
    }
  }
  attr {
    key: "_output_shapes"
    value {
      list {
        shape {
          dim {
            size: 256
          }
        }
      }
    }
  }
  attr {
    key: "use_locking"
    value {
      b: true
    }
  }
  attr {
    key: "validate_shape"
    value {
      b: true
    }
  }
}
node {
  name: "GEN/fc1/moving_var/read"
  op: "Identity"
  input: "GEN/fc1/moving_var"
  attr {
    key: "T"
    value {
      type: DT_FLOAT
    }
  }
  attr {
    key: "_class"
    value {
      list {
        s: "loc:@GEN/fc1/moving_var"
      }
    }
  }
  attr {
    key: "_output_shapes"
    value {
      list {
        shape {
          dim {
            size: 256
          }
        }
      }
    }
  }
}
node {
  name: "GEN/fc1/moments/mean/reduction_indices"
  op: "Const"
  attr {
    key: "_output_shapes"
    value {
      list {
        shape {
          dim {
            size: 1
          }
        }
      }
    }
  }
  attr {
    key: "dtype"
    value {
      type: DT_INT32
    }
  }
  attr {
    key: "value"
    value {
      tensor {
        dtype: DT_INT32
        tensor_shape {
          dim {
            size: 1
          }
        }
        int_val: 0
      }
    }
  }
}
node {
  name: "GEN/fc1/moments/mean"
  op: "Mean"
  input: "GEN/fc1/MatMul"
  input: "GEN/fc1/moments/mean/reduction_indices"
  attr {
    key: "T"
    value {
      type: DT_FLOAT
    }
  }
  attr {
    key: "Tidx"
    value {
      type: DT_INT32
    }
  }
  attr {
    key: "_output_shapes"
    value {
      list {
        shape {
          dim {
            size: 1
          }
          dim {
            size: 256
          }
        }
      }
    }
  }
  attr {
    key: "keep_dims"
    value {
      b: true
    }
  }
}
node {
  name: "GEN/fc1/moments/StopGradient"
  op: "StopGradient"
  input: "GEN/fc1/moments/mean"
  attr {
    key: "T"
    value {
      type: DT_FLOAT
    }
  }
  attr {
    key: "_output_shapes"
    value {
      list {
        shape {
          dim {
            size: 1
          }
          dim {
            size: 256
          }
        }
      }
    }
  }
}
node {
  name: "GEN/fc1/moments/SquaredDifference"
  op: "SquaredDifference"
  input: "GEN/fc1/MatMul"
  input: "GEN/fc1/moments/StopGradient"
  attr {
    key: "T"
    value {
      type: DT_FLOAT
    }
  }
  attr {
    key: "_output_shapes"
    value {
      list {
        shape {
          dim {
            size: 50
          }
          dim {
            size: 256
          }
        }
      }
    }
  }
}
node {
  name: "GEN/fc1/moments/variance/reduction_indices"
  op: "Const"
  attr {
    key: "_output_shapes"
    value {
      list {
        shape {
          dim {
            size: 1
          }
        }
      }
    }
  }
  attr {
    key: "dtype"
    value {
      type: DT_INT32
    }
  }
  attr {
    key: "value"
    value {
      tensor {
        dtype: DT_INT32
        tensor_shape {
          dim {
            size: 1
          }
        }
        int_val: 0
      }
    }
  }
}
node {
  name: "GEN/fc1/moments/variance"
  op: "Mean"
  input: "GEN/fc1/moments/SquaredDifference"
  input: "GEN/fc1/moments/variance/reduction_indices"
  attr {
    key: "T"
    value {
      type: DT_FLOAT
    }
  }
  attr {
    key: "Tidx"
    value {
      type: DT_INT32
    }
  }
  attr {
    key: "_output_shapes"
    value {
      list {
        shape {
          dim {
            size: 1
          }
          dim {
            size: 256
          }
        }
      }
    }
  }
  attr {
    key: "keep_dims"
    value {
      b: true
    }
  }
}
node {
  name: "GEN/fc1/Reshape/shape"
  op: "Const"
  attr {
    key: "_output_shapes"
    value {
      list {
        shape {
          dim {
            size: 1
          }
        }
      }
    }
  }
  attr {
    key: "dtype"
    value {
      type: DT_INT32
    }
  }
  attr {
    key: "value"
    value {
      tensor {
        dtype: DT_INT32
        tensor_shape {
          dim {
            size: 1
          }
        }
        int_val: 256
      }
    }
  }
}
node {
  name: "GEN/fc1/Reshape"
  op: "Reshape"
  input: "GEN/fc1/moments/mean"
  input: "GEN/fc1/Reshape/shape"
  attr {
    key: "T"
    value {
      type: DT_FLOAT
    }
  }
  attr {
    key: "Tshape"
    value {
      type: DT_INT32
    }
  }
  attr {
    key: "_output_shapes"
    value {
      list {
        shape {
          dim {
            size: 256
          }
        }
      }
    }
  }
}
node {
  name: "GEN/fc1/Reshape_1/shape"
  op: "Const"
  attr {
    key: "_output_shapes"
    value {
      list {
        shape {
          dim {
            size: 1
          }
        }
      }
    }
  }
  attr {
    key: "dtype"
    value {
      type: DT_INT32
    }
  }
  attr {
    key: "value"
    value {
      tensor {
        dtype: DT_INT32
        tensor_shape {
          dim {
            size: 1
          }
        }
        int_val: 256
      }
    }
  }
}
node {
  name: "GEN/fc1/Reshape_1"
  op: "Reshape"
  input: "GEN/fc1/moments/variance"
  input: "GEN/fc1/Reshape_1/shape"
  attr {
    key: "T"
    value {
      type: DT_FLOAT
    }
  }
  attr {
    key: "Tshape"
    value {
      type: DT_INT32
    }
  }
  attr {
    key: "_output_shapes"
    value {
      list {
        shape {
          dim {
            size: 256
          }
        }
      }
    }
  }
}
node {
  name: "GEN/fc1/mul/y"
  op: "Const"
  attr {
    key: "_output_shapes"
    value {
      list {
        shape {
        }
      }
    }
  }
  attr {
    key: "dtype"
    value {
      type: DT_FLOAT
    }
  }
  attr {
    key: "value"
    value {
      tensor {
        dtype: DT_FLOAT
        tensor_shape {
        }
        float_val: 0.990000009537
      }
    }
  }
}
node {
  name: "GEN/fc1/mul"
  op: "Mul"
  input: "GEN/fc1/moving_mean/read"
  input: "GEN/fc1/mul/y"
  attr {
    key: "T"
    value {
      type: DT_FLOAT
    }
  }
  attr {
    key: "_output_shapes"
    value {
      list {
        shape {
          dim {
            size: 256
          }
        }
      }
    }
  }
}
node {
  name: "GEN/fc1/mul_1/y"
  op: "Const"
  attr {
    key: "_output_shapes"
    value {
      list {
        shape {
        }
      }
    }
  }
  attr {
    key: "dtype"
    value {
      type: DT_FLOAT
    }
  }
  attr {
    key: "value"
    value {
      tensor {
        dtype: DT_FLOAT
        tensor_shape {
        }
        float_val: 0.00999999977648
      }
    }
  }
}
node {
  name: "GEN/fc1/mul_1"
  op: "Mul"
  input: "GEN/fc1/Reshape"
  input: "GEN/fc1/mul_1/y"
  attr {
    key: "T"
    value {
      type: DT_FLOAT
    }
  }
  attr {
    key: "_output_shapes"
    value {
      list {
        shape {
          dim {
            size: 256
          }
        }
      }
    }
  }
}
node {
  name: "GEN/fc1/add"
  op: "Add"
  input: "GEN/fc1/mul"
  input: "GEN/fc1/mul_1"
  attr {
    key: "T"
    value {
      type: DT_FLOAT
    }
  }
  attr {
    key: "_output_shapes"
    value {
      list {
        shape {
          dim {
            size: 256
          }
        }
      }
    }
  }
}
node {
  name: "GEN/fc1/Assign"
  op: "Assign"
  input: "GEN/fc1/moving_mean"
  input: "GEN/fc1/add"
  attr {
    key: "T"
    value {
      type: DT_FLOAT
    }
  }
  attr {
    key: "_class"
    value {
      list {
        s: "loc:@GEN/fc1/moving_mean"
      }
    }
  }
  attr {
    key: "_output_shapes"
    value {
      list {
        shape {
          dim {
            size: 256
          }
        }
      }
    }
  }
  attr {
    key: "use_locking"
    value {
      b: true
    }
  }
  attr {
    key: "validate_shape"
    value {
      b: true
    }
  }
}
node {
  name: "GEN/fc1/mul_2/y"
  op: "Const"
  attr {
    key: "_output_shapes"
    value {
      list {
        shape {
        }
      }
    }
  }
  attr {
    key: "dtype"
    value {
      type: DT_FLOAT
    }
  }
  attr {
    key: "value"
    value {
      tensor {
        dtype: DT_FLOAT
        tensor_shape {
        }
        float_val: 0.990000009537
      }
    }
  }
}
node {
  name: "GEN/fc1/mul_2"
  op: "Mul"
  input: "GEN/fc1/moving_var/read"
  input: "GEN/fc1/mul_2/y"
  attr {
    key: "T"
    value {
      type: DT_FLOAT
    }
  }
  attr {
    key: "_output_shapes"
    value {
      list {
        shape {
          dim {
            size: 256
          }
        }
      }
    }
  }
}
node {
  name: "GEN/fc1/mul_3/x"
  op: "Const"
  attr {
    key: "_output_shapes"
    value {
      list {
        shape {
        }
      }
    }
  }
  attr {
    key: "dtype"
    value {
      type: DT_FLOAT
    }
  }
  attr {
    key: "value"
    value {
      tensor {
        dtype: DT_FLOAT
        tensor_shape {
        }
        float_val: 1.0
      }
    }
  }
}
node {
  name: "GEN/fc1/mul_3"
  op: "Mul"
  input: "GEN/fc1/mul_3/x"
  input: "GEN/fc1/Reshape_1"
  attr {
    key: "T"
    value {
      type: DT_FLOAT
    }
  }
  attr {
    key: "_output_shapes"
    value {
      list {
        shape {
          dim {
            size: 256
          }
        }
      }
    }
  }
}
node {
  name: "GEN/fc1/mul_4/y"
  op: "Const"
  attr {
    key: "_output_shapes"
    value {
      list {
        shape {
        }
      }
    }
  }
  attr {
    key: "dtype"
    value {
      type: DT_FLOAT
    }
  }
  attr {
    key: "value"
    value {
      tensor {
        dtype: DT_FLOAT
        tensor_shape {
        }
        float_val: 0.00999999977648
      }
    }
  }
}
node {
  name: "GEN/fc1/mul_4"
  op: "Mul"
  input: "GEN/fc1/mul_3"
  input: "GEN/fc1/mul_4/y"
  attr {
    key: "T"
    value {
      type: DT_FLOAT
    }
  }
  attr {
    key: "_output_shapes"
    value {
      list {
        shape {
          dim {
            size: 256
          }
        }
      }
    }
  }
}
node {
  name: "GEN/fc1/add_1"
  op: "Add"
  input: "GEN/fc1/mul_2"
  input: "GEN/fc1/mul_4"
  attr {
    key: "T"
    value {
      type: DT_FLOAT
    }
  }
  attr {
    key: "_output_shapes"
    value {
      list {
        shape {
          dim {
            size: 256
          }
        }
      }
    }
  }
}
node {
  name: "GEN/fc1/Assign_1"
  op: "Assign"
  input: "GEN/fc1/moving_var"
  input: "GEN/fc1/add_1"
  attr {
    key: "T"
    value {
      type: DT_FLOAT
    }
  }
  attr {
    key: "_class"
    value {
      list {
        s: "loc:@GEN/fc1/moving_var"
      }
    }
  }
  attr {
    key: "_output_shapes"
    value {
      list {
        shape {
          dim {
            size: 256
          }
        }
      }
    }
  }
  attr {
    key: "use_locking"
    value {
      b: true
    }
  }
  attr {
    key: "validate_shape"
    value {
      b: true
    }
  }
}
node {
  name: "GEN/fc1/batchnorm/add/y"
  op: "Const"
  input: "^GEN/fc1/Assign"
  input: "^GEN/fc1/Assign_1"
  attr {
    key: "_output_shapes"
    value {
      list {
        shape {
        }
      }
    }
  }
  attr {
    key: "dtype"
    value {
      type: DT_FLOAT
    }
  }
  attr {
    key: "value"
    value {
      tensor {
        dtype: DT_FLOAT
        tensor_shape {
        }
        float_val: 0.0010000000475
      }
    }
  }
}
node {
  name: "GEN/fc1/batchnorm/add"
  op: "Add"
  input: "GEN/fc1/Reshape_1"
  input: "GEN/fc1/batchnorm/add/y"
  attr {
    key: "T"
    value {
      type: DT_FLOAT
    }
  }
  attr {
    key: "_output_shapes"
    value {
      list {
        shape {
          dim {
            size: 256
          }
        }
      }
    }
  }
}
node {
  name: "GEN/fc1/batchnorm/Rsqrt"
  op: "Rsqrt"
  input: "GEN/fc1/batchnorm/add"
  attr {
    key: "T"
    value {
      type: DT_FLOAT
    }
  }
  attr {
    key: "_output_shapes"
    value {
      list {
        shape {
          dim {
            size: 256
          }
        }
      }
    }
  }
}
node {
  name: "GEN/fc1/batchnorm/mul"
  op: "Mul"
  input: "GEN/fc1/batchnorm/Rsqrt"
  input: "GEN/fc1/gamma/read"
  attr {
    key: "T"
    value {
      type: DT_FLOAT
    }
  }
  attr {
    key: "_output_shapes"
    value {
      list {
        shape {
          dim {
            size: 256
          }
        }
      }
    }
  }
}
node {
  name: "GEN/fc1/batchnorm/mul_1"
  op: "Mul"
  input: "GEN/fc1/MatMul"
  input: "GEN/fc1/batchnorm/mul"
  attr {
    key: "T"
    value {
      type: DT_FLOAT
    }
  }
  attr {
    key: "_output_shapes"
    value {
      list {
        shape {
          dim {
            size: 50
          }
          dim {
            size: 256
          }
        }
      }
    }
  }
}
node {
  name: "GEN/fc1/batchnorm/mul_2"
  op: "Mul"
  input: "GEN/fc1/Reshape"
  input: "GEN/fc1/batchnorm/mul"
  attr {
    key: "T"
    value {
      type: DT_FLOAT
    }
  }
  attr {
    key: "_output_shapes"
    value {
      list {
        shape {
          dim {
            size: 256
          }
        }
      }
    }
  }
}
node {
  name: "GEN/fc1/batchnorm/sub"
  op: "Sub"
  input: "GEN/fc1/beta/read"
  input: "GEN/fc1/batchnorm/mul_2"
  attr {
    key: "T"
    value {
      type: DT_FLOAT
    }
  }
  attr {
    key: "_output_shapes"
    value {
      list {
        shape {
          dim {
            size: 256
          }
        }
      }
    }
  }
}
node {
  name: "GEN/fc1/batchnorm/add_1"
  op: "Add"
  input: "GEN/fc1/batchnorm/mul_1"
  input: "GEN/fc1/batchnorm/sub"
  attr {
    key: "T"
    value {
      type: DT_FLOAT
    }
  }
  attr {
    key: "_output_shapes"
    value {
      list {
        shape {
          dim {
            size: 50
          }
          dim {
            size: 256
          }
        }
      }
    }
  }
}
node {
  name: "GEN/fc1/Relu"
  op: "Relu"
  input: "GEN/fc1/batchnorm/add_1"
  attr {
    key: "T"
    value {
      type: DT_FLOAT
    }
  }
  attr {
    key: "_output_shapes"
    value {
      list {
        shape {
          dim {
            size: 50
          }
          dim {
            size: 256
          }
        }
      }
    }
  }
}
node {
  name: "GEN/fc1/Reshape_2/shape"
  op: "Const"
  attr {
    key: "_output_shapes"
    value {
      list {
        shape {
          dim {
            size: 4
          }
        }
      }
    }
  }
  attr {
    key: "dtype"
    value {
      type: DT_INT32
    }
  }
  attr {
    key: "value"
    value {
      tensor {
        dtype: DT_INT32
        tensor_shape {
          dim {
            size: 4
          }
        }
        tensor_content: "2\000\000\000\002\000\000\000\002\000\000\000@\000\000\000"
      }
    }
  }
}
node {
  name: "GEN/fc1/Reshape_2"
  op: "Reshape"
  input: "GEN/fc1/Relu"
  input: "GEN/fc1/Reshape_2/shape"
  attr {
    key: "T"
    value {
      type: DT_FLOAT
    }
  }
  attr {
    key: "Tshape"
    value {
      type: DT_INT32
    }
  }
  attr {
    key: "_output_shapes"
    value {
      list {
        shape {
          dim {
            size: 50
          }
          dim {
            size: 2
          }
          dim {
            size: 2
          }
          dim {
            size: 64
          }
        }
      }
    }
  }
}
node {
  name: "GEN/deconv1/size"
  op: "Const"
  attr {
    key: "_output_shapes"
    value {
      list {
        shape {
          dim {
            size: 2
          }
        }
      }
    }
  }
  attr {
    key: "dtype"
    value {
      type: DT_INT32
    }
  }
  attr {
    key: "value"
    value {
      tensor {
        dtype: DT_INT32
        tensor_shape {
          dim {
            size: 2
          }
        }
        tensor_content: "\004\000\000\000\004\000\000\000"
      }
    }
  }
}
node {
  name: "GEN/deconv1/ResizeNearestNeighbor"
  op: "ResizeNearestNeighbor"
  input: "GEN/fc1/Reshape_2"
  input: "GEN/deconv1/size"
  attr {
    key: "T"
    value {
      type: DT_FLOAT
    }
  }
  attr {
    key: "_output_shapes"
    value {
      list {
        shape {
          dim {
            size: 50
          }
          dim {
            size: 4
          }
          dim {
            size: 4
          }
          dim {
            size: 64
          }
        }
      }
    }
  }
  attr {
    key: "align_corners"
    value {
      b: false
    }
  }
}
node {
  name: "GEN/deconv1/weights/Initializer/truncated_normal/shape"
  op: "Const"
  attr {
    key: "_class"
    value {
      list {
        s: "loc:@GEN/deconv1/weights"
      }
    }
  }
  attr {
    key: "_output_shapes"
    value {
      list {
        shape {
          dim {
            size: 4
          }
        }
      }
    }
  }
  attr {
    key: "dtype"
    value {
      type: DT_INT32
    }
  }
  attr {
    key: "value"
    value {
      tensor {
        dtype: DT_INT32
        tensor_shape {
          dim {
            size: 4
          }
        }
        tensor_content: "\003\000\000\000\003\000\000\000 \000\000\000@\000\000\000"
      }
    }
  }
}
node {
  name: "GEN/deconv1/weights/Initializer/truncated_normal/mean"
  op: "Const"
  attr {
    key: "_class"
    value {
      list {
        s: "loc:@GEN/deconv1/weights"
      }
    }
  }
  attr {
    key: "_output_shapes"
    value {
      list {
        shape {
        }
      }
    }
  }
  attr {
    key: "dtype"
    value {
      type: DT_FLOAT
    }
  }
  attr {
    key: "value"
    value {
      tensor {
        dtype: DT_FLOAT
        tensor_shape {
        }
        float_val: 0.0
      }
    }
  }
}
node {
  name: "GEN/deconv1/weights/Initializer/truncated_normal/stddev"
  op: "Const"
  attr {
    key: "_class"
    value {
      list {
        s: "loc:@GEN/deconv1/weights"
      }
    }
  }
  attr {
    key: "_output_shapes"
    value {
      list {
        shape {
        }
      }
    }
  }
  attr {
    key: "dtype"
    value {
      type: DT_FLOAT
    }
  }
  attr {
    key: "value"
    value {
      tensor {
        dtype: DT_FLOAT
        tensor_shape {
        }
        float_val: 0.095014616847
      }
    }
  }
}
node {
  name: "GEN/deconv1/weights/Initializer/truncated_normal/TruncatedNormal"
  op: "TruncatedNormal"
  input: "GEN/deconv1/weights/Initializer/truncated_normal/shape"
  attr {
    key: "T"
    value {
      type: DT_INT32
    }
  }
  attr {
    key: "_class"
    value {
      list {
        s: "loc:@GEN/deconv1/weights"
      }
    }
  }
  attr {
    key: "_output_shapes"
    value {
      list {
        shape {
          dim {
            size: 3
          }
          dim {
            size: 3
          }
          dim {
            size: 32
          }
          dim {
            size: 64
          }
        }
      }
    }
  }
  attr {
    key: "dtype"
    value {
      type: DT_FLOAT
    }
  }
  attr {
    key: "seed"
    value {
      i: 0
    }
  }
  attr {
    key: "seed2"
    value {
      i: 126
    }
  }
}
node {
  name: "GEN/deconv1/weights/Initializer/truncated_normal/mul"
  op: "Mul"
  input: "GEN/deconv1/weights/Initializer/truncated_normal/TruncatedNormal"
  input: "GEN/deconv1/weights/Initializer/truncated_normal/stddev"
  attr {
    key: "T"
    value {
      type: DT_FLOAT
    }
  }
  attr {
    key: "_class"
    value {
      list {
        s: "loc:@GEN/deconv1/weights"
      }
    }
  }
  attr {
    key: "_output_shapes"
    value {
      list {
        shape {
          dim {
            size: 3
          }
          dim {
            size: 3
          }
          dim {
            size: 32
          }
          dim {
            size: 64
          }
        }
      }
    }
  }
}
node {
  name: "GEN/deconv1/weights/Initializer/truncated_normal"
  op: "Add"
  input: "GEN/deconv1/weights/Initializer/truncated_normal/mul"
  input: "GEN/deconv1/weights/Initializer/truncated_normal/mean"
  attr {
    key: "T"
    value {
      type: DT_FLOAT
    }
  }
  attr {
    key: "_class"
    value {
      list {
        s: "loc:@GEN/deconv1/weights"
      }
    }
  }
  attr {
    key: "_output_shapes"
    value {
      list {
        shape {
          dim {
            size: 3
          }
          dim {
            size: 3
          }
          dim {
            size: 32
          }
          dim {
            size: 64
          }
        }
      }
    }
  }
}
node {
  name: "GEN/deconv1/weights"
  op: "VariableV2"
  attr {
    key: "_class"
    value {
      list {
        s: "loc:@GEN/deconv1/weights"
      }
    }
  }
  attr {
    key: "_output_shapes"
    value {
      list {
        shape {
          dim {
            size: 3
          }
          dim {
            size: 3
          }
          dim {
            size: 32
          }
          dim {
            size: 64
          }
        }
      }
    }
  }
  attr {
    key: "container"
    value {
      s: ""
    }
  }
  attr {
    key: "dtype"
    value {
      type: DT_FLOAT
    }
  }
  attr {
    key: "shape"
    value {
      shape {
        dim {
          size: 3
        }
        dim {
          size: 3
        }
        dim {
          size: 32
        }
        dim {
          size: 64
        }
      }
    }
  }
  attr {
    key: "shared_name"
    value {
      s: ""
    }
  }
}
node {
  name: "GEN/deconv1/weights/Assign"
  op: "Assign"
  input: "GEN/deconv1/weights"
  input: "GEN/deconv1/weights/Initializer/truncated_normal"
  attr {
    key: "T"
    value {
      type: DT_FLOAT
    }
  }
  attr {
    key: "_class"
    value {
      list {
        s: "loc:@GEN/deconv1/weights"
      }
    }
  }
  attr {
    key: "_output_shapes"
    value {
      list {
        shape {
          dim {
            size: 3
          }
          dim {
            size: 3
          }
          dim {
            size: 32
          }
          dim {
            size: 64
          }
        }
      }
    }
  }
  attr {
    key: "use_locking"
    value {
      b: true
    }
  }
  attr {
    key: "validate_shape"
    value {
      b: true
    }
  }
}
node {
  name: "GEN/deconv1/weights/read"
  op: "Identity"
  input: "GEN/deconv1/weights"
  attr {
    key: "T"
    value {
      type: DT_FLOAT
    }
  }
  attr {
    key: "_class"
    value {
      list {
        s: "loc:@GEN/deconv1/weights"
      }
    }
  }
  attr {
    key: "_output_shapes"
    value {
      list {
        shape {
          dim {
            size: 3
          }
          dim {
            size: 3
          }
          dim {
            size: 32
          }
          dim {
            size: 64
          }
        }
      }
    }
  }
}
node {
  name: "GEN/deconv1/conv2d_transpose/output_shape"
  op: "Const"
  attr {
    key: "_output_shapes"
    value {
      list {
        shape {
          dim {
            size: 4
          }
        }
      }
    }
  }
  attr {
    key: "dtype"
    value {
      type: DT_INT32
    }
  }
  attr {
    key: "value"
    value {
      tensor {
        dtype: DT_INT32
        tensor_shape {
          dim {
            size: 4
          }
        }
        tensor_content: "2\000\000\000\004\000\000\000\004\000\000\000 \000\000\000"
      }
    }
  }
}
node {
  name: "GEN/deconv1/conv2d_transpose"
  op: "Conv2DBackpropInput"
  input: "GEN/deconv1/conv2d_transpose/output_shape"
  input: "GEN/deconv1/weights/read"
  input: "GEN/deconv1/ResizeNearestNeighbor"
  attr {
    key: "T"
    value {
      type: DT_FLOAT
    }
  }
  attr {
    key: "_output_shapes"
    value {
      list {
        shape {
          dim {
            size: 50
          }
          dim {
            size: 4
          }
          dim {
            size: 4
          }
          dim {
            size: 32
          }
        }
      }
    }
  }
  attr {
    key: "data_format"
    value {
      s: "NHWC"
    }
  }
  attr {
    key: "padding"
    value {
      s: "SAME"
    }
  }
  attr {
    key: "strides"
    value {
      list {
        i: 1
        i: 1
        i: 1
        i: 1
      }
    }
  }
  attr {
    key: "use_cudnn_on_gpu"
    value {
      b: true
    }
  }
}
node {
  name: "GEN/deconv1/beta/Initializer/Const"
  op: "Const"
  attr {
    key: "_class"
    value {
      list {
        s: "loc:@GEN/deconv1/beta"
      }
    }
  }
  attr {
    key: "_output_shapes"
    value {
      list {
        shape {
          dim {
            size: 32
          }
        }
      }
    }
  }
  attr {
    key: "dtype"
    value {
      type: DT_FLOAT
    }
  }
  attr {
    key: "value"
    value {
      tensor {
        dtype: DT_FLOAT
        tensor_shape {
          dim {
            size: 32
          }
        }
        float_val: 0.0
      }
    }
  }
}
node {
  name: "GEN/deconv1/beta"
  op: "VariableV2"
  attr {
    key: "_class"
    value {
      list {
        s: "loc:@GEN/deconv1/beta"
      }
    }
  }
  attr {
    key: "_output_shapes"
    value {
      list {
        shape {
          dim {
            size: 32
          }
        }
      }
    }
  }
  attr {
    key: "container"
    value {
      s: ""
    }
  }
  attr {
    key: "dtype"
    value {
      type: DT_FLOAT
    }
  }
  attr {
    key: "shape"
    value {
      shape {
        dim {
          size: 32
        }
      }
    }
  }
  attr {
    key: "shared_name"
    value {
      s: ""
    }
  }
}
node {
  name: "GEN/deconv1/beta/Assign"
  op: "Assign"
  input: "GEN/deconv1/beta"
  input: "GEN/deconv1/beta/Initializer/Const"
  attr {
    key: "T"
    value {
      type: DT_FLOAT
    }
  }
  attr {
    key: "_class"
    value {
      list {
        s: "loc:@GEN/deconv1/beta"
      }
    }
  }
  attr {
    key: "_output_shapes"
    value {
      list {
        shape {
          dim {
            size: 32
          }
        }
      }
    }
  }
  attr {
    key: "use_locking"
    value {
      b: true
    }
  }
  attr {
    key: "validate_shape"
    value {
      b: true
    }
  }
}
node {
  name: "GEN/deconv1/beta/read"
  op: "Identity"
  input: "GEN/deconv1/beta"
  attr {
    key: "T"
    value {
      type: DT_FLOAT
    }
  }
  attr {
    key: "_class"
    value {
      list {
        s: "loc:@GEN/deconv1/beta"
      }
    }
  }
  attr {
    key: "_output_shapes"
    value {
      list {
        shape {
          dim {
            size: 32
          }
        }
      }
    }
  }
}
node {
  name: "GEN/deconv1/gamma/Initializer/Const"
  op: "Const"
  attr {
    key: "_class"
    value {
      list {
        s: "loc:@GEN/deconv1/gamma"
      }
    }
  }
  attr {
    key: "_output_shapes"
    value {
      list {
        shape {
          dim {
            size: 32
          }
        }
      }
    }
  }
  attr {
    key: "dtype"
    value {
      type: DT_FLOAT
    }
  }
  attr {
    key: "value"
    value {
      tensor {
        dtype: DT_FLOAT
        tensor_shape {
          dim {
            size: 32
          }
        }
        float_val: 1.0
      }
    }
  }
}
node {
  name: "GEN/deconv1/gamma"
  op: "VariableV2"
  attr {
    key: "_class"
    value {
      list {
        s: "loc:@GEN/deconv1/gamma"
      }
    }
  }
  attr {
    key: "_output_shapes"
    value {
      list {
        shape {
          dim {
            size: 32
          }
        }
      }
    }
  }
  attr {
    key: "container"
    value {
      s: ""
    }
  }
  attr {
    key: "dtype"
    value {
      type: DT_FLOAT
    }
  }
  attr {
    key: "shape"
    value {
      shape {
        dim {
          size: 32
        }
      }
    }
  }
  attr {
    key: "shared_name"
    value {
      s: ""
    }
  }
}
node {
  name: "GEN/deconv1/gamma/Assign"
  op: "Assign"
  input: "GEN/deconv1/gamma"
  input: "GEN/deconv1/gamma/Initializer/Const"
  attr {
    key: "T"
    value {
      type: DT_FLOAT
    }
  }
  attr {
    key: "_class"
    value {
      list {
        s: "loc:@GEN/deconv1/gamma"
      }
    }
  }
  attr {
    key: "_output_shapes"
    value {
      list {
        shape {
          dim {
            size: 32
          }
        }
      }
    }
  }
  attr {
    key: "use_locking"
    value {
      b: true
    }
  }
  attr {
    key: "validate_shape"
    value {
      b: true
    }
  }
}
node {
  name: "GEN/deconv1/gamma/read"
  op: "Identity"
  input: "GEN/deconv1/gamma"
  attr {
    key: "T"
    value {
      type: DT_FLOAT
    }
  }
  attr {
    key: "_class"
    value {
      list {
        s: "loc:@GEN/deconv1/gamma"
      }
    }
  }
  attr {
    key: "_output_shapes"
    value {
      list {
        shape {
          dim {
            size: 32
          }
        }
      }
    }
  }
}
node {
  name: "GEN/deconv1/moving_mean/Initializer/Const"
  op: "Const"
  attr {
    key: "_class"
    value {
      list {
        s: "loc:@GEN/deconv1/moving_mean"
      }
    }
  }
  attr {
    key: "_output_shapes"
    value {
      list {
        shape {
          dim {
            size: 32
          }
        }
      }
    }
  }
  attr {
    key: "dtype"
    value {
      type: DT_FLOAT
    }
  }
  attr {
    key: "value"
    value {
      tensor {
        dtype: DT_FLOAT
        tensor_shape {
          dim {
            size: 32
          }
        }
        float_val: 0.0
      }
    }
  }
}
node {
  name: "GEN/deconv1/moving_mean"
  op: "VariableV2"
  attr {
    key: "_class"
    value {
      list {
        s: "loc:@GEN/deconv1/moving_mean"
      }
    }
  }
  attr {
    key: "_output_shapes"
    value {
      list {
        shape {
          dim {
            size: 32
          }
        }
      }
    }
  }
  attr {
    key: "container"
    value {
      s: ""
    }
  }
  attr {
    key: "dtype"
    value {
      type: DT_FLOAT
    }
  }
  attr {
    key: "shape"
    value {
      shape {
        dim {
          size: 32
        }
      }
    }
  }
  attr {
    key: "shared_name"
    value {
      s: ""
    }
  }
}
node {
  name: "GEN/deconv1/moving_mean/Assign"
  op: "Assign"
  input: "GEN/deconv1/moving_mean"
  input: "GEN/deconv1/moving_mean/Initializer/Const"
  attr {
    key: "T"
    value {
      type: DT_FLOAT
    }
  }
  attr {
    key: "_class"
    value {
      list {
        s: "loc:@GEN/deconv1/moving_mean"
      }
    }
  }
  attr {
    key: "_output_shapes"
    value {
      list {
        shape {
          dim {
            size: 32
          }
        }
      }
    }
  }
  attr {
    key: "use_locking"
    value {
      b: true
    }
  }
  attr {
    key: "validate_shape"
    value {
      b: true
    }
  }
}
node {
  name: "GEN/deconv1/moving_mean/read"
  op: "Identity"
  input: "GEN/deconv1/moving_mean"
  attr {
    key: "T"
    value {
      type: DT_FLOAT
    }
  }
  attr {
    key: "_class"
    value {
      list {
        s: "loc:@GEN/deconv1/moving_mean"
      }
    }
  }
  attr {
    key: "_output_shapes"
    value {
      list {
        shape {
          dim {
            size: 32
          }
        }
      }
    }
  }
}
node {
  name: "GEN/deconv1/moving_var/Initializer/Const"
  op: "Const"
  attr {
    key: "_class"
    value {
      list {
        s: "loc:@GEN/deconv1/moving_var"
      }
    }
  }
  attr {
    key: "_output_shapes"
    value {
      list {
        shape {
          dim {
            size: 32
          }
        }
      }
    }
  }
  attr {
    key: "dtype"
    value {
      type: DT_FLOAT
    }
  }
  attr {
    key: "value"
    value {
      tensor {
        dtype: DT_FLOAT
        tensor_shape {
          dim {
            size: 32
          }
        }
        float_val: 1.0
      }
    }
  }
}
node {
  name: "GEN/deconv1/moving_var"
  op: "VariableV2"
  attr {
    key: "_class"
    value {
      list {
        s: "loc:@GEN/deconv1/moving_var"
      }
    }
  }
  attr {
    key: "_output_shapes"
    value {
      list {
        shape {
          dim {
            size: 32
          }
        }
      }
    }
  }
  attr {
    key: "container"
    value {
      s: ""
    }
  }
  attr {
    key: "dtype"
    value {
      type: DT_FLOAT
    }
  }
  attr {
    key: "shape"
    value {
      shape {
        dim {
          size: 32
        }
      }
    }
  }
  attr {
    key: "shared_name"
    value {
      s: ""
    }
  }
}
node {
  name: "GEN/deconv1/moving_var/Assign"
  op: "Assign"
  input: "GEN/deconv1/moving_var"
  input: "GEN/deconv1/moving_var/Initializer/Const"
  attr {
    key: "T"
    value {
      type: DT_FLOAT
    }
  }
  attr {
    key: "_class"
    value {
      list {
        s: "loc:@GEN/deconv1/moving_var"
      }
    }
  }
  attr {
    key: "_output_shapes"
    value {
      list {
        shape {
          dim {
            size: 32
          }
        }
      }
    }
  }
  attr {
    key: "use_locking"
    value {
      b: true
    }
  }
  attr {
    key: "validate_shape"
    value {
      b: true
    }
  }
}
node {
  name: "GEN/deconv1/moving_var/read"
  op: "Identity"
  input: "GEN/deconv1/moving_var"
  attr {
    key: "T"
    value {
      type: DT_FLOAT
    }
  }
  attr {
    key: "_class"
    value {
      list {
        s: "loc:@GEN/deconv1/moving_var"
      }
    }
  }
  attr {
    key: "_output_shapes"
    value {
      list {
        shape {
          dim {
            size: 32
          }
        }
      }
    }
  }
}
node {
  name: "GEN/deconv1/moments/mean/reduction_indices"
  op: "Const"
  attr {
    key: "_output_shapes"
    value {
      list {
        shape {
          dim {
            size: 3
          }
        }
      }
    }
  }
  attr {
    key: "dtype"
    value {
      type: DT_INT32
    }
  }
  attr {
    key: "value"
    value {
      tensor {
        dtype: DT_INT32
        tensor_shape {
          dim {
            size: 3
          }
        }
        tensor_content: "\000\000\000\000\001\000\000\000\002\000\000\000"
      }
    }
  }
}
node {
  name: "GEN/deconv1/moments/mean"
  op: "Mean"
  input: "GEN/deconv1/conv2d_transpose"
  input: "GEN/deconv1/moments/mean/reduction_indices"
  attr {
    key: "T"
    value {
      type: DT_FLOAT
    }
  }
  attr {
    key: "Tidx"
    value {
      type: DT_INT32
    }
  }
  attr {
    key: "_output_shapes"
    value {
      list {
        shape {
          dim {
            size: 1
          }
          dim {
            size: 1
          }
          dim {
            size: 1
          }
          dim {
            size: 32
          }
        }
      }
    }
  }
  attr {
    key: "keep_dims"
    value {
      b: true
    }
  }
}
node {
  name: "GEN/deconv1/moments/StopGradient"
  op: "StopGradient"
  input: "GEN/deconv1/moments/mean"
  attr {
    key: "T"
    value {
      type: DT_FLOAT
    }
  }
  attr {
    key: "_output_shapes"
    value {
      list {
        shape {
          dim {
            size: 1
          }
          dim {
            size: 1
          }
          dim {
            size: 1
          }
          dim {
            size: 32
          }
        }
      }
    }
  }
}
node {
  name: "GEN/deconv1/moments/SquaredDifference"
  op: "SquaredDifference"
  input: "GEN/deconv1/conv2d_transpose"
  input: "GEN/deconv1/moments/StopGradient"
  attr {
    key: "T"
    value {
      type: DT_FLOAT
    }
  }
  attr {
    key: "_output_shapes"
    value {
      list {
        shape {
          dim {
            size: 50
          }
          dim {
            size: 4
          }
          dim {
            size: 4
          }
          dim {
            size: 32
          }
        }
      }
    }
  }
}
node {
  name: "GEN/deconv1/moments/variance/reduction_indices"
  op: "Const"
  attr {
    key: "_output_shapes"
    value {
      list {
        shape {
          dim {
            size: 3
          }
        }
      }
    }
  }
  attr {
    key: "dtype"
    value {
      type: DT_INT32
    }
  }
  attr {
    key: "value"
    value {
      tensor {
        dtype: DT_INT32
        tensor_shape {
          dim {
            size: 3
          }
        }
        tensor_content: "\000\000\000\000\001\000\000\000\002\000\000\000"
      }
    }
  }
}
node {
  name: "GEN/deconv1/moments/variance"
  op: "Mean"
  input: "GEN/deconv1/moments/SquaredDifference"
  input: "GEN/deconv1/moments/variance/reduction_indices"
  attr {
    key: "T"
    value {
      type: DT_FLOAT
    }
  }
  attr {
    key: "Tidx"
    value {
      type: DT_INT32
    }
  }
  attr {
    key: "_output_shapes"
    value {
      list {
        shape {
          dim {
            size: 1
          }
          dim {
            size: 1
          }
          dim {
            size: 1
          }
          dim {
            size: 32
          }
        }
      }
    }
  }
  attr {
    key: "keep_dims"
    value {
      b: true
    }
  }
}
node {
  name: "GEN/deconv1/Reshape/shape"
  op: "Const"
  attr {
    key: "_output_shapes"
    value {
      list {
        shape {
          dim {
            size: 1
          }
        }
      }
    }
  }
  attr {
    key: "dtype"
    value {
      type: DT_INT32
    }
  }
  attr {
    key: "value"
    value {
      tensor {
        dtype: DT_INT32
        tensor_shape {
          dim {
            size: 1
          }
        }
        int_val: 32
      }
    }
  }
}
node {
  name: "GEN/deconv1/Reshape"
  op: "Reshape"
  input: "GEN/deconv1/moments/mean"
  input: "GEN/deconv1/Reshape/shape"
  attr {
    key: "T"
    value {
      type: DT_FLOAT
    }
  }
  attr {
    key: "Tshape"
    value {
      type: DT_INT32
    }
  }
  attr {
    key: "_output_shapes"
    value {
      list {
        shape {
          dim {
            size: 32
          }
        }
      }
    }
  }
}
node {
  name: "GEN/deconv1/Reshape_1/shape"
  op: "Const"
  attr {
    key: "_output_shapes"
    value {
      list {
        shape {
          dim {
            size: 1
          }
        }
      }
    }
  }
  attr {
    key: "dtype"
    value {
      type: DT_INT32
    }
  }
  attr {
    key: "value"
    value {
      tensor {
        dtype: DT_INT32
        tensor_shape {
          dim {
            size: 1
          }
        }
        int_val: 32
      }
    }
  }
}
node {
  name: "GEN/deconv1/Reshape_1"
  op: "Reshape"
  input: "GEN/deconv1/moments/variance"
  input: "GEN/deconv1/Reshape_1/shape"
  attr {
    key: "T"
    value {
      type: DT_FLOAT
    }
  }
  attr {
    key: "Tshape"
    value {
      type: DT_INT32
    }
  }
  attr {
    key: "_output_shapes"
    value {
      list {
        shape {
          dim {
            size: 32
          }
        }
      }
    }
  }
}
node {
  name: "GEN/deconv1/mul/y"
  op: "Const"
  attr {
    key: "_output_shapes"
    value {
      list {
        shape {
        }
      }
    }
  }
  attr {
    key: "dtype"
    value {
      type: DT_FLOAT
    }
  }
  attr {
    key: "value"
    value {
      tensor {
        dtype: DT_FLOAT
        tensor_shape {
        }
        float_val: 0.990000009537
      }
    }
  }
}
node {
  name: "GEN/deconv1/mul"
  op: "Mul"
  input: "GEN/deconv1/moving_mean/read"
  input: "GEN/deconv1/mul/y"
  attr {
    key: "T"
    value {
      type: DT_FLOAT
    }
  }
  attr {
    key: "_output_shapes"
    value {
      list {
        shape {
          dim {
            size: 32
          }
        }
      }
    }
  }
}
node {
  name: "GEN/deconv1/mul_1/y"
  op: "Const"
  attr {
    key: "_output_shapes"
    value {
      list {
        shape {
        }
      }
    }
  }
  attr {
    key: "dtype"
    value {
      type: DT_FLOAT
    }
  }
  attr {
    key: "value"
    value {
      tensor {
        dtype: DT_FLOAT
        tensor_shape {
        }
        float_val: 0.00999999977648
      }
    }
  }
}
node {
  name: "GEN/deconv1/mul_1"
  op: "Mul"
  input: "GEN/deconv1/Reshape"
  input: "GEN/deconv1/mul_1/y"
  attr {
    key: "T"
    value {
      type: DT_FLOAT
    }
  }
  attr {
    key: "_output_shapes"
    value {
      list {
        shape {
          dim {
            size: 32
          }
        }
      }
    }
  }
}
node {
  name: "GEN/deconv1/add"
  op: "Add"
  input: "GEN/deconv1/mul"
  input: "GEN/deconv1/mul_1"
  attr {
    key: "T"
    value {
      type: DT_FLOAT
    }
  }
  attr {
    key: "_output_shapes"
    value {
      list {
        shape {
          dim {
            size: 32
          }
        }
      }
    }
  }
}
node {
  name: "GEN/deconv1/Assign"
  op: "Assign"
  input: "GEN/deconv1/moving_mean"
  input: "GEN/deconv1/add"
  attr {
    key: "T"
    value {
      type: DT_FLOAT
    }
  }
  attr {
    key: "_class"
    value {
      list {
        s: "loc:@GEN/deconv1/moving_mean"
      }
    }
  }
  attr {
    key: "_output_shapes"
    value {
      list {
        shape {
          dim {
            size: 32
          }
        }
      }
    }
  }
  attr {
    key: "use_locking"
    value {
      b: true
    }
  }
  attr {
    key: "validate_shape"
    value {
      b: true
    }
  }
}
node {
  name: "GEN/deconv1/mul_2/y"
  op: "Const"
  attr {
    key: "_output_shapes"
    value {
      list {
        shape {
        }
      }
    }
  }
  attr {
    key: "dtype"
    value {
      type: DT_FLOAT
    }
  }
  attr {
    key: "value"
    value {
      tensor {
        dtype: DT_FLOAT
        tensor_shape {
        }
        float_val: 0.990000009537
      }
    }
  }
}
node {
  name: "GEN/deconv1/mul_2"
  op: "Mul"
  input: "GEN/deconv1/moving_var/read"
  input: "GEN/deconv1/mul_2/y"
  attr {
    key: "T"
    value {
      type: DT_FLOAT
    }
  }
  attr {
    key: "_output_shapes"
    value {
      list {
        shape {
          dim {
            size: 32
          }
        }
      }
    }
  }
}
node {
  name: "GEN/deconv1/mul_3/x"
  op: "Const"
  attr {
    key: "_output_shapes"
    value {
      list {
        shape {
        }
      }
    }
  }
  attr {
    key: "dtype"
    value {
      type: DT_FLOAT
    }
  }
  attr {
    key: "value"
    value {
      tensor {
        dtype: DT_FLOAT
        tensor_shape {
        }
        float_val: 1.0
      }
    }
  }
}
node {
  name: "GEN/deconv1/mul_3"
  op: "Mul"
  input: "GEN/deconv1/mul_3/x"
  input: "GEN/deconv1/Reshape_1"
  attr {
    key: "T"
    value {
      type: DT_FLOAT
    }
  }
  attr {
    key: "_output_shapes"
    value {
      list {
        shape {
          dim {
            size: 32
          }
        }
      }
    }
  }
}
node {
  name: "GEN/deconv1/mul_4/y"
  op: "Const"
  attr {
    key: "_output_shapes"
    value {
      list {
        shape {
        }
      }
    }
  }
  attr {
    key: "dtype"
    value {
      type: DT_FLOAT
    }
  }
  attr {
    key: "value"
    value {
      tensor {
        dtype: DT_FLOAT
        tensor_shape {
        }
        float_val: 0.00999999977648
      }
    }
  }
}
node {
  name: "GEN/deconv1/mul_4"
  op: "Mul"
  input: "GEN/deconv1/mul_3"
  input: "GEN/deconv1/mul_4/y"
  attr {
    key: "T"
    value {
      type: DT_FLOAT
    }
  }
  attr {
    key: "_output_shapes"
    value {
      list {
        shape {
          dim {
            size: 32
          }
        }
      }
    }
  }
}
node {
  name: "GEN/deconv1/add_1"
  op: "Add"
  input: "GEN/deconv1/mul_2"
  input: "GEN/deconv1/mul_4"
  attr {
    key: "T"
    value {
      type: DT_FLOAT
    }
  }
  attr {
    key: "_output_shapes"
    value {
      list {
        shape {
          dim {
            size: 32
          }
        }
      }
    }
  }
}
node {
  name: "GEN/deconv1/Assign_1"
  op: "Assign"
  input: "GEN/deconv1/moving_var"
  input: "GEN/deconv1/add_1"
  attr {
    key: "T"
    value {
      type: DT_FLOAT
    }
  }
  attr {
    key: "_class"
    value {
      list {
        s: "loc:@GEN/deconv1/moving_var"
      }
    }
  }
  attr {
    key: "_output_shapes"
    value {
      list {
        shape {
          dim {
            size: 32
          }
        }
      }
    }
  }
  attr {
    key: "use_locking"
    value {
      b: true
    }
  }
  attr {
    key: "validate_shape"
    value {
      b: true
    }
  }
}
node {
  name: "GEN/deconv1/batchnorm/add/y"
  op: "Const"
  input: "^GEN/deconv1/Assign"
  input: "^GEN/deconv1/Assign_1"
  attr {
    key: "_output_shapes"
    value {
      list {
        shape {
        }
      }
    }
  }
  attr {
    key: "dtype"
    value {
      type: DT_FLOAT
    }
  }
  attr {
    key: "value"
    value {
      tensor {
        dtype: DT_FLOAT
        tensor_shape {
        }
        float_val: 0.0010000000475
      }
    }
  }
}
node {
  name: "GEN/deconv1/batchnorm/add"
  op: "Add"
  input: "GEN/deconv1/Reshape_1"
  input: "GEN/deconv1/batchnorm/add/y"
  attr {
    key: "T"
    value {
      type: DT_FLOAT
    }
  }
  attr {
    key: "_output_shapes"
    value {
      list {
        shape {
          dim {
            size: 32
          }
        }
      }
    }
  }
}
node {
  name: "GEN/deconv1/batchnorm/Rsqrt"
  op: "Rsqrt"
  input: "GEN/deconv1/batchnorm/add"
  attr {
    key: "T"
    value {
      type: DT_FLOAT
    }
  }
  attr {
    key: "_output_shapes"
    value {
      list {
        shape {
          dim {
            size: 32
          }
        }
      }
    }
  }
}
node {
  name: "GEN/deconv1/batchnorm/mul"
  op: "Mul"
  input: "GEN/deconv1/batchnorm/Rsqrt"
  input: "GEN/deconv1/gamma/read"
  attr {
    key: "T"
    value {
      type: DT_FLOAT
    }
  }
  attr {
    key: "_output_shapes"
    value {
      list {
        shape {
          dim {
            size: 32
          }
        }
      }
    }
  }
}
node {
  name: "GEN/deconv1/batchnorm/mul_1"
  op: "Mul"
  input: "GEN/deconv1/conv2d_transpose"
  input: "GEN/deconv1/batchnorm/mul"
  attr {
    key: "T"
    value {
      type: DT_FLOAT
    }
  }
  attr {
    key: "_output_shapes"
    value {
      list {
        shape {
          dim {
            size: 50
          }
          dim {
            size: 4
          }
          dim {
            size: 4
          }
          dim {
            size: 32
          }
        }
      }
    }
  }
}
node {
  name: "GEN/deconv1/batchnorm/mul_2"
  op: "Mul"
  input: "GEN/deconv1/Reshape"
  input: "GEN/deconv1/batchnorm/mul"
  attr {
    key: "T"
    value {
      type: DT_FLOAT
    }
  }
  attr {
    key: "_output_shapes"
    value {
      list {
        shape {
          dim {
            size: 32
          }
        }
      }
    }
  }
}
node {
  name: "GEN/deconv1/batchnorm/sub"
  op: "Sub"
  input: "GEN/deconv1/beta/read"
  input: "GEN/deconv1/batchnorm/mul_2"
  attr {
    key: "T"
    value {
      type: DT_FLOAT
    }
  }
  attr {
    key: "_output_shapes"
    value {
      list {
        shape {
          dim {
            size: 32
          }
        }
      }
    }
  }
}
node {
  name: "GEN/deconv1/batchnorm/add_1"
  op: "Add"
  input: "GEN/deconv1/batchnorm/mul_1"
  input: "GEN/deconv1/batchnorm/sub"
  attr {
    key: "T"
    value {
      type: DT_FLOAT
    }
  }
  attr {
    key: "_output_shapes"
    value {
      list {
        shape {
          dim {
            size: 50
          }
          dim {
            size: 4
          }
          dim {
            size: 4
          }
          dim {
            size: 32
          }
        }
      }
    }
  }
}
node {
  name: "GEN/deconv1/Relu"
  op: "Relu"
  input: "GEN/deconv1/batchnorm/add_1"
  attr {
    key: "T"
    value {
      type: DT_FLOAT
    }
  }
  attr {
    key: "_output_shapes"
    value {
      list {
        shape {
          dim {
            size: 50
          }
          dim {
            size: 4
          }
          dim {
            size: 4
          }
          dim {
            size: 32
          }
        }
      }
    }
  }
}
node {
  name: "GEN/deconv2/size"
  op: "Const"
  attr {
    key: "_output_shapes"
    value {
      list {
        shape {
          dim {
            size: 2
          }
        }
      }
    }
  }
  attr {
    key: "dtype"
    value {
      type: DT_INT32
    }
  }
  attr {
    key: "value"
    value {
      tensor {
        dtype: DT_INT32
        tensor_shape {
          dim {
            size: 2
          }
        }
        tensor_content: "\010\000\000\000\010\000\000\000"
      }
    }
  }
}
node {
  name: "GEN/deconv2/ResizeNearestNeighbor"
  op: "ResizeNearestNeighbor"
  input: "GEN/deconv1/Relu"
  input: "GEN/deconv2/size"
  attr {
    key: "T"
    value {
      type: DT_FLOAT
    }
  }
  attr {
    key: "_output_shapes"
    value {
      list {
        shape {
          dim {
            size: 50
          }
          dim {
            size: 8
          }
          dim {
            size: 8
          }
          dim {
            size: 32
          }
        }
      }
    }
  }
  attr {
    key: "align_corners"
    value {
      b: false
    }
  }
}
node {
  name: "GEN/deconv2/weights/Initializer/truncated_normal/shape"
  op: "Const"
  attr {
    key: "_class"
    value {
      list {
        s: "loc:@GEN/deconv2/weights"
      }
    }
  }
  attr {
    key: "_output_shapes"
    value {
      list {
        shape {
          dim {
            size: 4
          }
        }
      }
    }
  }
  attr {
    key: "dtype"
    value {
      type: DT_INT32
    }
  }
  attr {
    key: "value"
    value {
      tensor {
        dtype: DT_INT32
        tensor_shape {
          dim {
            size: 4
          }
        }
        tensor_content: "\003\000\000\000\003\000\000\000\020\000\000\000 \000\000\000"
      }
    }
  }
}
node {
  name: "GEN/deconv2/weights/Initializer/truncated_normal/mean"
  op: "Const"
  attr {
    key: "_class"
    value {
      list {
        s: "loc:@GEN/deconv2/weights"
      }
    }
  }
  attr {
    key: "_output_shapes"
    value {
      list {
        shape {
        }
      }
    }
  }
  attr {
    key: "dtype"
    value {
      type: DT_FLOAT
    }
  }
  attr {
    key: "value"
    value {
      tensor {
        dtype: DT_FLOAT
        tensor_shape {
        }
        float_val: 0.0
      }
    }
  }
}
node {
  name: "GEN/deconv2/weights/Initializer/truncated_normal/stddev"
  op: "Const"
  attr {
    key: "_class"
    value {
      list {
        s: "loc:@GEN/deconv2/weights"
      }
    }
  }
  attr {
    key: "_output_shapes"
    value {
      list {
        shape {
        }
      }
    }
  }
  attr {
    key: "dtype"
    value {
      type: DT_FLOAT
    }
  }
  attr {
    key: "value"
    value {
      tensor {
        dtype: DT_FLOAT
        tensor_shape {
        }
        float_val: 0.134370967746
      }
    }
  }
}
node {
  name: "GEN/deconv2/weights/Initializer/truncated_normal/TruncatedNormal"
  op: "TruncatedNormal"
  input: "GEN/deconv2/weights/Initializer/truncated_normal/shape"
  attr {
    key: "T"
    value {
      type: DT_INT32
    }
  }
  attr {
    key: "_class"
    value {
      list {
        s: "loc:@GEN/deconv2/weights"
      }
    }
  }
  attr {
    key: "_output_shapes"
    value {
      list {
        shape {
          dim {
            size: 3
          }
          dim {
            size: 3
          }
          dim {
            size: 16
          }
          dim {
            size: 32
          }
        }
      }
    }
  }
  attr {
    key: "dtype"
    value {
      type: DT_FLOAT
    }
  }
  attr {
    key: "seed"
    value {
      i: 0
    }
  }
  attr {
    key: "seed2"
    value {
      i: 188
    }
  }
}
node {
  name: "GEN/deconv2/weights/Initializer/truncated_normal/mul"
  op: "Mul"
  input: "GEN/deconv2/weights/Initializer/truncated_normal/TruncatedNormal"
  input: "GEN/deconv2/weights/Initializer/truncated_normal/stddev"
  attr {
    key: "T"
    value {
      type: DT_FLOAT
    }
  }
  attr {
    key: "_class"
    value {
      list {
        s: "loc:@GEN/deconv2/weights"
      }
    }
  }
  attr {
    key: "_output_shapes"
    value {
      list {
        shape {
          dim {
            size: 3
          }
          dim {
            size: 3
          }
          dim {
            size: 16
          }
          dim {
            size: 32
          }
        }
      }
    }
  }
}
node {
  name: "GEN/deconv2/weights/Initializer/truncated_normal"
  op: "Add"
  input: "GEN/deconv2/weights/Initializer/truncated_normal/mul"
  input: "GEN/deconv2/weights/Initializer/truncated_normal/mean"
  attr {
    key: "T"
    value {
      type: DT_FLOAT
    }
  }
  attr {
    key: "_class"
    value {
      list {
        s: "loc:@GEN/deconv2/weights"
      }
    }
  }
  attr {
    key: "_output_shapes"
    value {
      list {
        shape {
          dim {
            size: 3
          }
          dim {
            size: 3
          }
          dim {
            size: 16
          }
          dim {
            size: 32
          }
        }
      }
    }
  }
}
node {
  name: "GEN/deconv2/weights"
  op: "VariableV2"
  attr {
    key: "_class"
    value {
      list {
        s: "loc:@GEN/deconv2/weights"
      }
    }
  }
  attr {
    key: "_output_shapes"
    value {
      list {
        shape {
          dim {
            size: 3
          }
          dim {
            size: 3
          }
          dim {
            size: 16
          }
          dim {
            size: 32
          }
        }
      }
    }
  }
  attr {
    key: "container"
    value {
      s: ""
    }
  }
  attr {
    key: "dtype"
    value {
      type: DT_FLOAT
    }
  }
  attr {
    key: "shape"
    value {
      shape {
        dim {
          size: 3
        }
        dim {
          size: 3
        }
        dim {
          size: 16
        }
        dim {
          size: 32
        }
      }
    }
  }
  attr {
    key: "shared_name"
    value {
      s: ""
    }
  }
}
node {
  name: "GEN/deconv2/weights/Assign"
  op: "Assign"
  input: "GEN/deconv2/weights"
  input: "GEN/deconv2/weights/Initializer/truncated_normal"
  attr {
    key: "T"
    value {
      type: DT_FLOAT
    }
  }
  attr {
    key: "_class"
    value {
      list {
        s: "loc:@GEN/deconv2/weights"
      }
    }
  }
  attr {
    key: "_output_shapes"
    value {
      list {
        shape {
          dim {
            size: 3
          }
          dim {
            size: 3
          }
          dim {
            size: 16
          }
          dim {
            size: 32
          }
        }
      }
    }
  }
  attr {
    key: "use_locking"
    value {
      b: true
    }
  }
  attr {
    key: "validate_shape"
    value {
      b: true
    }
  }
}
node {
  name: "GEN/deconv2/weights/read"
  op: "Identity"
  input: "GEN/deconv2/weights"
  attr {
    key: "T"
    value {
      type: DT_FLOAT
    }
  }
  attr {
    key: "_class"
    value {
      list {
        s: "loc:@GEN/deconv2/weights"
      }
    }
  }
  attr {
    key: "_output_shapes"
    value {
      list {
        shape {
          dim {
            size: 3
          }
          dim {
            size: 3
          }
          dim {
            size: 16
          }
          dim {
            size: 32
          }
        }
      }
    }
  }
}
node {
  name: "GEN/deconv2/conv2d_transpose/output_shape"
  op: "Const"
  attr {
    key: "_output_shapes"
    value {
      list {
        shape {
          dim {
            size: 4
          }
        }
      }
    }
  }
  attr {
    key: "dtype"
    value {
      type: DT_INT32
    }
  }
  attr {
    key: "value"
    value {
      tensor {
        dtype: DT_INT32
        tensor_shape {
          dim {
            size: 4
          }
        }
        tensor_content: "2\000\000\000\010\000\000\000\010\000\000\000\020\000\000\000"
      }
    }
  }
}
node {
  name: "GEN/deconv2/conv2d_transpose"
  op: "Conv2DBackpropInput"
  input: "GEN/deconv2/conv2d_transpose/output_shape"
  input: "GEN/deconv2/weights/read"
  input: "GEN/deconv2/ResizeNearestNeighbor"
  attr {
    key: "T"
    value {
      type: DT_FLOAT
    }
  }
  attr {
    key: "_output_shapes"
    value {
      list {
        shape {
          dim {
            size: 50
          }
          dim {
            size: 8
          }
          dim {
            size: 8
          }
          dim {
            size: 16
          }
        }
      }
    }
  }
  attr {
    key: "data_format"
    value {
      s: "NHWC"
    }
  }
  attr {
    key: "padding"
    value {
      s: "SAME"
    }
  }
  attr {
    key: "strides"
    value {
      list {
        i: 1
        i: 1
        i: 1
        i: 1
      }
    }
  }
  attr {
    key: "use_cudnn_on_gpu"
    value {
      b: true
    }
  }
}
node {
  name: "GEN/deconv2/beta/Initializer/Const"
  op: "Const"
  attr {
    key: "_class"
    value {
      list {
        s: "loc:@GEN/deconv2/beta"
      }
    }
  }
  attr {
    key: "_output_shapes"
    value {
      list {
        shape {
          dim {
            size: 16
          }
        }
      }
    }
  }
  attr {
    key: "dtype"
    value {
      type: DT_FLOAT
    }
  }
  attr {
    key: "value"
    value {
      tensor {
        dtype: DT_FLOAT
        tensor_shape {
          dim {
            size: 16
          }
        }
        float_val: 0.0
      }
    }
  }
}
node {
  name: "GEN/deconv2/beta"
  op: "VariableV2"
  attr {
    key: "_class"
    value {
      list {
        s: "loc:@GEN/deconv2/beta"
      }
    }
  }
  attr {
    key: "_output_shapes"
    value {
      list {
        shape {
          dim {
            size: 16
          }
        }
      }
    }
  }
  attr {
    key: "container"
    value {
      s: ""
    }
  }
  attr {
    key: "dtype"
    value {
      type: DT_FLOAT
    }
  }
  attr {
    key: "shape"
    value {
      shape {
        dim {
          size: 16
        }
      }
    }
  }
  attr {
    key: "shared_name"
    value {
      s: ""
    }
  }
}
node {
  name: "GEN/deconv2/beta/Assign"
  op: "Assign"
  input: "GEN/deconv2/beta"
  input: "GEN/deconv2/beta/Initializer/Const"
  attr {
    key: "T"
    value {
      type: DT_FLOAT
    }
  }
  attr {
    key: "_class"
    value {
      list {
        s: "loc:@GEN/deconv2/beta"
      }
    }
  }
  attr {
    key: "_output_shapes"
    value {
      list {
        shape {
          dim {
            size: 16
          }
        }
      }
    }
  }
  attr {
    key: "use_locking"
    value {
      b: true
    }
  }
  attr {
    key: "validate_shape"
    value {
      b: true
    }
  }
}
node {
  name: "GEN/deconv2/beta/read"
  op: "Identity"
  input: "GEN/deconv2/beta"
  attr {
    key: "T"
    value {
      type: DT_FLOAT
    }
  }
  attr {
    key: "_class"
    value {
      list {
        s: "loc:@GEN/deconv2/beta"
      }
    }
  }
  attr {
    key: "_output_shapes"
    value {
      list {
        shape {
          dim {
            size: 16
          }
        }
      }
    }
  }
}
node {
  name: "GEN/deconv2/gamma/Initializer/Const"
  op: "Const"
  attr {
    key: "_class"
    value {
      list {
        s: "loc:@GEN/deconv2/gamma"
      }
    }
  }
  attr {
    key: "_output_shapes"
    value {
      list {
        shape {
          dim {
            size: 16
          }
        }
      }
    }
  }
  attr {
    key: "dtype"
    value {
      type: DT_FLOAT
    }
  }
  attr {
    key: "value"
    value {
      tensor {
        dtype: DT_FLOAT
        tensor_shape {
          dim {
            size: 16
          }
        }
        float_val: 1.0
      }
    }
  }
}
node {
  name: "GEN/deconv2/gamma"
  op: "VariableV2"
  attr {
    key: "_class"
    value {
      list {
        s: "loc:@GEN/deconv2/gamma"
      }
    }
  }
  attr {
    key: "_output_shapes"
    value {
      list {
        shape {
          dim {
            size: 16
          }
        }
      }
    }
  }
  attr {
    key: "container"
    value {
      s: ""
    }
  }
  attr {
    key: "dtype"
    value {
      type: DT_FLOAT
    }
  }
  attr {
    key: "shape"
    value {
      shape {
        dim {
          size: 16
        }
      }
    }
  }
  attr {
    key: "shared_name"
    value {
      s: ""
    }
  }
}
node {
  name: "GEN/deconv2/gamma/Assign"
  op: "Assign"
  input: "GEN/deconv2/gamma"
  input: "GEN/deconv2/gamma/Initializer/Const"
  attr {
    key: "T"
    value {
      type: DT_FLOAT
    }
  }
  attr {
    key: "_class"
    value {
      list {
        s: "loc:@GEN/deconv2/gamma"
      }
    }
  }
  attr {
    key: "_output_shapes"
    value {
      list {
        shape {
          dim {
            size: 16
          }
        }
      }
    }
  }
  attr {
    key: "use_locking"
    value {
      b: true
    }
  }
  attr {
    key: "validate_shape"
    value {
      b: true
    }
  }
}
node {
  name: "GEN/deconv2/gamma/read"
  op: "Identity"
  input: "GEN/deconv2/gamma"
  attr {
    key: "T"
    value {
      type: DT_FLOAT
    }
  }
  attr {
    key: "_class"
    value {
      list {
        s: "loc:@GEN/deconv2/gamma"
      }
    }
  }
  attr {
    key: "_output_shapes"
    value {
      list {
        shape {
          dim {
            size: 16
          }
        }
      }
    }
  }
}
node {
  name: "GEN/deconv2/moving_mean/Initializer/Const"
  op: "Const"
  attr {
    key: "_class"
    value {
      list {
        s: "loc:@GEN/deconv2/moving_mean"
      }
    }
  }
  attr {
    key: "_output_shapes"
    value {
      list {
        shape {
          dim {
            size: 16
          }
        }
      }
    }
  }
  attr {
    key: "dtype"
    value {
      type: DT_FLOAT
    }
  }
  attr {
    key: "value"
    value {
      tensor {
        dtype: DT_FLOAT
        tensor_shape {
          dim {
            size: 16
          }
        }
        float_val: 0.0
      }
    }
  }
}
node {
  name: "GEN/deconv2/moving_mean"
  op: "VariableV2"
  attr {
    key: "_class"
    value {
      list {
        s: "loc:@GEN/deconv2/moving_mean"
      }
    }
  }
  attr {
    key: "_output_shapes"
    value {
      list {
        shape {
          dim {
            size: 16
          }
        }
      }
    }
  }
  attr {
    key: "container"
    value {
      s: ""
    }
  }
  attr {
    key: "dtype"
    value {
      type: DT_FLOAT
    }
  }
  attr {
    key: "shape"
    value {
      shape {
        dim {
          size: 16
        }
      }
    }
  }
  attr {
    key: "shared_name"
    value {
      s: ""
    }
  }
}
node {
  name: "GEN/deconv2/moving_mean/Assign"
  op: "Assign"
  input: "GEN/deconv2/moving_mean"
  input: "GEN/deconv2/moving_mean/Initializer/Const"
  attr {
    key: "T"
    value {
      type: DT_FLOAT
    }
  }
  attr {
    key: "_class"
    value {
      list {
        s: "loc:@GEN/deconv2/moving_mean"
      }
    }
  }
  attr {
    key: "_output_shapes"
    value {
      list {
        shape {
          dim {
            size: 16
          }
        }
      }
    }
  }
  attr {
    key: "use_locking"
    value {
      b: true
    }
  }
  attr {
    key: "validate_shape"
    value {
      b: true
    }
  }
}
node {
  name: "GEN/deconv2/moving_mean/read"
  op: "Identity"
  input: "GEN/deconv2/moving_mean"
  attr {
    key: "T"
    value {
      type: DT_FLOAT
    }
  }
  attr {
    key: "_class"
    value {
      list {
        s: "loc:@GEN/deconv2/moving_mean"
      }
    }
  }
  attr {
    key: "_output_shapes"
    value {
      list {
        shape {
          dim {
            size: 16
          }
        }
      }
    }
  }
}
node {
  name: "GEN/deconv2/moving_var/Initializer/Const"
  op: "Const"
  attr {
    key: "_class"
    value {
      list {
        s: "loc:@GEN/deconv2/moving_var"
      }
    }
  }
  attr {
    key: "_output_shapes"
    value {
      list {
        shape {
          dim {
            size: 16
          }
        }
      }
    }
  }
  attr {
    key: "dtype"
    value {
      type: DT_FLOAT
    }
  }
  attr {
    key: "value"
    value {
      tensor {
        dtype: DT_FLOAT
        tensor_shape {
          dim {
            size: 16
          }
        }
        float_val: 1.0
      }
    }
  }
}
node {
  name: "GEN/deconv2/moving_var"
  op: "VariableV2"
  attr {
    key: "_class"
    value {
      list {
        s: "loc:@GEN/deconv2/moving_var"
      }
    }
  }
  attr {
    key: "_output_shapes"
    value {
      list {
        shape {
          dim {
            size: 16
          }
        }
      }
    }
  }
  attr {
    key: "container"
    value {
      s: ""
    }
  }
  attr {
    key: "dtype"
    value {
      type: DT_FLOAT
    }
  }
  attr {
    key: "shape"
    value {
      shape {
        dim {
          size: 16
        }
      }
    }
  }
  attr {
    key: "shared_name"
    value {
      s: ""
    }
  }
}
node {
  name: "GEN/deconv2/moving_var/Assign"
  op: "Assign"
  input: "GEN/deconv2/moving_var"
  input: "GEN/deconv2/moving_var/Initializer/Const"
  attr {
    key: "T"
    value {
      type: DT_FLOAT
    }
  }
  attr {
    key: "_class"
    value {
      list {
        s: "loc:@GEN/deconv2/moving_var"
      }
    }
  }
  attr {
    key: "_output_shapes"
    value {
      list {
        shape {
          dim {
            size: 16
          }
        }
      }
    }
  }
  attr {
    key: "use_locking"
    value {
      b: true
    }
  }
  attr {
    key: "validate_shape"
    value {
      b: true
    }
  }
}
node {
  name: "GEN/deconv2/moving_var/read"
  op: "Identity"
  input: "GEN/deconv2/moving_var"
  attr {
    key: "T"
    value {
      type: DT_FLOAT
    }
  }
  attr {
    key: "_class"
    value {
      list {
        s: "loc:@GEN/deconv2/moving_var"
      }
    }
  }
  attr {
    key: "_output_shapes"
    value {
      list {
        shape {
          dim {
            size: 16
          }
        }
      }
    }
  }
}
node {
  name: "GEN/deconv2/moments/mean/reduction_indices"
  op: "Const"
  attr {
    key: "_output_shapes"
    value {
      list {
        shape {
          dim {
            size: 3
          }
        }
      }
    }
  }
  attr {
    key: "dtype"
    value {
      type: DT_INT32
    }
  }
  attr {
    key: "value"
    value {
      tensor {
        dtype: DT_INT32
        tensor_shape {
          dim {
            size: 3
          }
        }
        tensor_content: "\000\000\000\000\001\000\000\000\002\000\000\000"
      }
    }
  }
}
node {
  name: "GEN/deconv2/moments/mean"
  op: "Mean"
  input: "GEN/deconv2/conv2d_transpose"
  input: "GEN/deconv2/moments/mean/reduction_indices"
  attr {
    key: "T"
    value {
      type: DT_FLOAT
    }
  }
  attr {
    key: "Tidx"
    value {
      type: DT_INT32
    }
  }
  attr {
    key: "_output_shapes"
    value {
      list {
        shape {
          dim {
            size: 1
          }
          dim {
            size: 1
          }
          dim {
            size: 1
          }
          dim {
            size: 16
          }
        }
      }
    }
  }
  attr {
    key: "keep_dims"
    value {
      b: true
    }
  }
}
node {
  name: "GEN/deconv2/moments/StopGradient"
  op: "StopGradient"
  input: "GEN/deconv2/moments/mean"
  attr {
    key: "T"
    value {
      type: DT_FLOAT
    }
  }
  attr {
    key: "_output_shapes"
    value {
      list {
        shape {
          dim {
            size: 1
          }
          dim {
            size: 1
          }
          dim {
            size: 1
          }
          dim {
            size: 16
          }
        }
      }
    }
  }
}
node {
  name: "GEN/deconv2/moments/SquaredDifference"
  op: "SquaredDifference"
  input: "GEN/deconv2/conv2d_transpose"
  input: "GEN/deconv2/moments/StopGradient"
  attr {
    key: "T"
    value {
      type: DT_FLOAT
    }
  }
  attr {
    key: "_output_shapes"
    value {
      list {
        shape {
          dim {
            size: 50
          }
          dim {
            size: 8
          }
          dim {
            size: 8
          }
          dim {
            size: 16
          }
        }
      }
    }
  }
}
node {
  name: "GEN/deconv2/moments/variance/reduction_indices"
  op: "Const"
  attr {
    key: "_output_shapes"
    value {
      list {
        shape {
          dim {
            size: 3
          }
        }
      }
    }
  }
  attr {
    key: "dtype"
    value {
      type: DT_INT32
    }
  }
  attr {
    key: "value"
    value {
      tensor {
        dtype: DT_INT32
        tensor_shape {
          dim {
            size: 3
          }
        }
        tensor_content: "\000\000\000\000\001\000\000\000\002\000\000\000"
      }
    }
  }
}
node {
  name: "GEN/deconv2/moments/variance"
  op: "Mean"
  input: "GEN/deconv2/moments/SquaredDifference"
  input: "GEN/deconv2/moments/variance/reduction_indices"
  attr {
    key: "T"
    value {
      type: DT_FLOAT
    }
  }
  attr {
    key: "Tidx"
    value {
      type: DT_INT32
    }
  }
  attr {
    key: "_output_shapes"
    value {
      list {
        shape {
          dim {
            size: 1
          }
          dim {
            size: 1
          }
          dim {
            size: 1
          }
          dim {
            size: 16
          }
        }
      }
    }
  }
  attr {
    key: "keep_dims"
    value {
      b: true
    }
  }
}
node {
  name: "GEN/deconv2/Reshape/shape"
  op: "Const"
  attr {
    key: "_output_shapes"
    value {
      list {
        shape {
          dim {
            size: 1
          }
        }
      }
    }
  }
  attr {
    key: "dtype"
    value {
      type: DT_INT32
    }
  }
  attr {
    key: "value"
    value {
      tensor {
        dtype: DT_INT32
        tensor_shape {
          dim {
            size: 1
          }
        }
        int_val: 16
      }
    }
  }
}
node {
  name: "GEN/deconv2/Reshape"
  op: "Reshape"
  input: "GEN/deconv2/moments/mean"
  input: "GEN/deconv2/Reshape/shape"
  attr {
    key: "T"
    value {
      type: DT_FLOAT
    }
  }
  attr {
    key: "Tshape"
    value {
      type: DT_INT32
    }
  }
  attr {
    key: "_output_shapes"
    value {
      list {
        shape {
          dim {
            size: 16
          }
        }
      }
    }
  }
}
node {
  name: "GEN/deconv2/Reshape_1/shape"
  op: "Const"
  attr {
    key: "_output_shapes"
    value {
      list {
        shape {
          dim {
            size: 1
          }
        }
      }
    }
  }
  attr {
    key: "dtype"
    value {
      type: DT_INT32
    }
  }
  attr {
    key: "value"
    value {
      tensor {
        dtype: DT_INT32
        tensor_shape {
          dim {
            size: 1
          }
        }
        int_val: 16
      }
    }
  }
}
node {
  name: "GEN/deconv2/Reshape_1"
  op: "Reshape"
  input: "GEN/deconv2/moments/variance"
  input: "GEN/deconv2/Reshape_1/shape"
  attr {
    key: "T"
    value {
      type: DT_FLOAT
    }
  }
  attr {
    key: "Tshape"
    value {
      type: DT_INT32
    }
  }
  attr {
    key: "_output_shapes"
    value {
      list {
        shape {
          dim {
            size: 16
          }
        }
      }
    }
  }
}
node {
  name: "GEN/deconv2/mul/y"
  op: "Const"
  attr {
    key: "_output_shapes"
    value {
      list {
        shape {
        }
      }
    }
  }
  attr {
    key: "dtype"
    value {
      type: DT_FLOAT
    }
  }
  attr {
    key: "value"
    value {
      tensor {
        dtype: DT_FLOAT
        tensor_shape {
        }
        float_val: 0.990000009537
      }
    }
  }
}
node {
  name: "GEN/deconv2/mul"
  op: "Mul"
  input: "GEN/deconv2/moving_mean/read"
  input: "GEN/deconv2/mul/y"
  attr {
    key: "T"
    value {
      type: DT_FLOAT
    }
  }
  attr {
    key: "_output_shapes"
    value {
      list {
        shape {
          dim {
            size: 16
          }
        }
      }
    }
  }
}
node {
  name: "GEN/deconv2/mul_1/y"
  op: "Const"
  attr {
    key: "_output_shapes"
    value {
      list {
        shape {
        }
      }
    }
  }
  attr {
    key: "dtype"
    value {
      type: DT_FLOAT
    }
  }
  attr {
    key: "value"
    value {
      tensor {
        dtype: DT_FLOAT
        tensor_shape {
        }
        float_val: 0.00999999977648
      }
    }
  }
}
node {
  name: "GEN/deconv2/mul_1"
  op: "Mul"
  input: "GEN/deconv2/Reshape"
  input: "GEN/deconv2/mul_1/y"
  attr {
    key: "T"
    value {
      type: DT_FLOAT
    }
  }
  attr {
    key: "_output_shapes"
    value {
      list {
        shape {
          dim {
            size: 16
          }
        }
      }
    }
  }
}
node {
  name: "GEN/deconv2/add"
  op: "Add"
  input: "GEN/deconv2/mul"
  input: "GEN/deconv2/mul_1"
  attr {
    key: "T"
    value {
      type: DT_FLOAT
    }
  }
  attr {
    key: "_output_shapes"
    value {
      list {
        shape {
          dim {
            size: 16
          }
        }
      }
    }
  }
}
node {
  name: "GEN/deconv2/Assign"
  op: "Assign"
  input: "GEN/deconv2/moving_mean"
  input: "GEN/deconv2/add"
  attr {
    key: "T"
    value {
      type: DT_FLOAT
    }
  }
  attr {
    key: "_class"
    value {
      list {
        s: "loc:@GEN/deconv2/moving_mean"
      }
    }
  }
  attr {
    key: "_output_shapes"
    value {
      list {
        shape {
          dim {
            size: 16
          }
        }
      }
    }
  }
  attr {
    key: "use_locking"
    value {
      b: true
    }
  }
  attr {
    key: "validate_shape"
    value {
      b: true
    }
  }
}
node {
  name: "GEN/deconv2/mul_2/y"
  op: "Const"
  attr {
    key: "_output_shapes"
    value {
      list {
        shape {
        }
      }
    }
  }
  attr {
    key: "dtype"
    value {
      type: DT_FLOAT
    }
  }
  attr {
    key: "value"
    value {
      tensor {
        dtype: DT_FLOAT
        tensor_shape {
        }
        float_val: 0.990000009537
      }
    }
  }
}
node {
  name: "GEN/deconv2/mul_2"
  op: "Mul"
  input: "GEN/deconv2/moving_var/read"
  input: "GEN/deconv2/mul_2/y"
  attr {
    key: "T"
    value {
      type: DT_FLOAT
    }
  }
  attr {
    key: "_output_shapes"
    value {
      list {
        shape {
          dim {
            size: 16
          }
        }
      }
    }
  }
}
node {
  name: "GEN/deconv2/mul_3/x"
  op: "Const"
  attr {
    key: "_output_shapes"
    value {
      list {
        shape {
        }
      }
    }
  }
  attr {
    key: "dtype"
    value {
      type: DT_FLOAT
    }
  }
  attr {
    key: "value"
    value {
      tensor {
        dtype: DT_FLOAT
        tensor_shape {
        }
        float_val: 1.0
      }
    }
  }
}
node {
  name: "GEN/deconv2/mul_3"
  op: "Mul"
  input: "GEN/deconv2/mul_3/x"
  input: "GEN/deconv2/Reshape_1"
  attr {
    key: "T"
    value {
      type: DT_FLOAT
    }
  }
  attr {
    key: "_output_shapes"
    value {
      list {
        shape {
          dim {
            size: 16
          }
        }
      }
    }
  }
}
node {
  name: "GEN/deconv2/mul_4/y"
  op: "Const"
  attr {
    key: "_output_shapes"
    value {
      list {
        shape {
        }
      }
    }
  }
  attr {
    key: "dtype"
    value {
      type: DT_FLOAT
    }
  }
  attr {
    key: "value"
    value {
      tensor {
        dtype: DT_FLOAT
        tensor_shape {
        }
        float_val: 0.00999999977648
      }
    }
  }
}
node {
  name: "GEN/deconv2/mul_4"
  op: "Mul"
  input: "GEN/deconv2/mul_3"
  input: "GEN/deconv2/mul_4/y"
  attr {
    key: "T"
    value {
      type: DT_FLOAT
    }
  }
  attr {
    key: "_output_shapes"
    value {
      list {
        shape {
          dim {
            size: 16
          }
        }
      }
    }
  }
}
node {
  name: "GEN/deconv2/add_1"
  op: "Add"
  input: "GEN/deconv2/mul_2"
  input: "GEN/deconv2/mul_4"
  attr {
    key: "T"
    value {
      type: DT_FLOAT
    }
  }
  attr {
    key: "_output_shapes"
    value {
      list {
        shape {
          dim {
            size: 16
          }
        }
      }
    }
  }
}
node {
  name: "GEN/deconv2/Assign_1"
  op: "Assign"
  input: "GEN/deconv2/moving_var"
  input: "GEN/deconv2/add_1"
  attr {
    key: "T"
    value {
      type: DT_FLOAT
    }
  }
  attr {
    key: "_class"
    value {
      list {
        s: "loc:@GEN/deconv2/moving_var"
      }
    }
  }
  attr {
    key: "_output_shapes"
    value {
      list {
        shape {
          dim {
            size: 16
          }
        }
      }
    }
  }
  attr {
    key: "use_locking"
    value {
      b: true
    }
  }
  attr {
    key: "validate_shape"
    value {
      b: true
    }
  }
}
node {
  name: "GEN/deconv2/batchnorm/add/y"
  op: "Const"
  input: "^GEN/deconv2/Assign"
  input: "^GEN/deconv2/Assign_1"
  attr {
    key: "_output_shapes"
    value {
      list {
        shape {
        }
      }
    }
  }
  attr {
    key: "dtype"
    value {
      type: DT_FLOAT
    }
  }
  attr {
    key: "value"
    value {
      tensor {
        dtype: DT_FLOAT
        tensor_shape {
        }
        float_val: 0.0010000000475
      }
    }
  }
}
node {
  name: "GEN/deconv2/batchnorm/add"
  op: "Add"
  input: "GEN/deconv2/Reshape_1"
  input: "GEN/deconv2/batchnorm/add/y"
  attr {
    key: "T"
    value {
      type: DT_FLOAT
    }
  }
  attr {
    key: "_output_shapes"
    value {
      list {
        shape {
          dim {
            size: 16
          }
        }
      }
    }
  }
}
node {
  name: "GEN/deconv2/batchnorm/Rsqrt"
  op: "Rsqrt"
  input: "GEN/deconv2/batchnorm/add"
  attr {
    key: "T"
    value {
      type: DT_FLOAT
    }
  }
  attr {
    key: "_output_shapes"
    value {
      list {
        shape {
          dim {
            size: 16
          }
        }
      }
    }
  }
}
node {
  name: "GEN/deconv2/batchnorm/mul"
  op: "Mul"
  input: "GEN/deconv2/batchnorm/Rsqrt"
  input: "GEN/deconv2/gamma/read"
  attr {
    key: "T"
    value {
      type: DT_FLOAT
    }
  }
  attr {
    key: "_output_shapes"
    value {
      list {
        shape {
          dim {
            size: 16
          }
        }
      }
    }
  }
}
node {
  name: "GEN/deconv2/batchnorm/mul_1"
  op: "Mul"
  input: "GEN/deconv2/conv2d_transpose"
  input: "GEN/deconv2/batchnorm/mul"
  attr {
    key: "T"
    value {
      type: DT_FLOAT
    }
  }
  attr {
    key: "_output_shapes"
    value {
      list {
        shape {
          dim {
            size: 50
          }
          dim {
            size: 8
          }
          dim {
            size: 8
          }
          dim {
            size: 16
          }
        }
      }
    }
  }
}
node {
  name: "GEN/deconv2/batchnorm/mul_2"
  op: "Mul"
  input: "GEN/deconv2/Reshape"
  input: "GEN/deconv2/batchnorm/mul"
  attr {
    key: "T"
    value {
      type: DT_FLOAT
    }
  }
  attr {
    key: "_output_shapes"
    value {
      list {
        shape {
          dim {
            size: 16
          }
        }
      }
    }
  }
}
node {
  name: "GEN/deconv2/batchnorm/sub"
  op: "Sub"
  input: "GEN/deconv2/beta/read"
  input: "GEN/deconv2/batchnorm/mul_2"
  attr {
    key: "T"
    value {
      type: DT_FLOAT
    }
  }
  attr {
    key: "_output_shapes"
    value {
      list {
        shape {
          dim {
            size: 16
          }
        }
      }
    }
  }
}
node {
  name: "GEN/deconv2/batchnorm/add_1"
  op: "Add"
  input: "GEN/deconv2/batchnorm/mul_1"
  input: "GEN/deconv2/batchnorm/sub"
  attr {
    key: "T"
    value {
      type: DT_FLOAT
    }
  }
  attr {
    key: "_output_shapes"
    value {
      list {
        shape {
          dim {
            size: 50
          }
          dim {
            size: 8
          }
          dim {
            size: 8
          }
          dim {
            size: 16
          }
        }
      }
    }
  }
}
node {
  name: "GEN/deconv2/Relu"
  op: "Relu"
  input: "GEN/deconv2/batchnorm/add_1"
  attr {
    key: "T"
    value {
      type: DT_FLOAT
    }
  }
  attr {
    key: "_output_shapes"
    value {
      list {
        shape {
          dim {
            size: 50
          }
          dim {
            size: 8
          }
          dim {
            size: 8
          }
          dim {
            size: 16
          }
        }
      }
    }
  }
}
node {
  name: "GEN/deconv3/size"
  op: "Const"
  attr {
    key: "_output_shapes"
    value {
      list {
        shape {
          dim {
            size: 2
          }
        }
      }
    }
  }
  attr {
    key: "dtype"
    value {
      type: DT_INT32
    }
  }
  attr {
    key: "value"
    value {
      tensor {
        dtype: DT_INT32
        tensor_shape {
          dim {
            size: 2
          }
        }
        tensor_content: "\020\000\000\000\020\000\000\000"
      }
    }
  }
}
node {
  name: "GEN/deconv3/ResizeNearestNeighbor"
  op: "ResizeNearestNeighbor"
  input: "GEN/deconv2/Relu"
  input: "GEN/deconv3/size"
  attr {
    key: "T"
    value {
      type: DT_FLOAT
    }
  }
  attr {
    key: "_output_shapes"
    value {
      list {
        shape {
          dim {
            size: 50
          }
          dim {
            size: 16
          }
          dim {
            size: 16
          }
          dim {
            size: 16
          }
        }
      }
    }
  }
  attr {
    key: "align_corners"
    value {
      b: false
    }
  }
}
node {
  name: "GEN/deconv3/weights/Initializer/truncated_normal/shape"
  op: "Const"
  attr {
    key: "_class"
    value {
      list {
        s: "loc:@GEN/deconv3/weights"
      }
    }
  }
  attr {
    key: "_output_shapes"
    value {
      list {
        shape {
          dim {
            size: 4
          }
        }
      }
    }
  }
  attr {
    key: "dtype"
    value {
      type: DT_INT32
    }
  }
  attr {
    key: "value"
    value {
      tensor {
        dtype: DT_INT32
        tensor_shape {
          dim {
            size: 4
          }
        }
        tensor_content: "\003\000\000\000\003\000\000\000\010\000\000\000\020\000\000\000"
      }
    }
  }
}
node {
  name: "GEN/deconv3/weights/Initializer/truncated_normal/mean"
  op: "Const"
  attr {
    key: "_class"
    value {
      list {
        s: "loc:@GEN/deconv3/weights"
      }
    }
  }
  attr {
    key: "_output_shapes"
    value {
      list {
        shape {
        }
      }
    }
  }
  attr {
    key: "dtype"
    value {
      type: DT_FLOAT
    }
  }
  attr {
    key: "value"
    value {
      tensor {
        dtype: DT_FLOAT
        tensor_shape {
        }
        float_val: 0.0
      }
    }
  }
}
node {
  name: "GEN/deconv3/weights/Initializer/truncated_normal/stddev"
  op: "Const"
  attr {
    key: "_class"
    value {
      list {
        s: "loc:@GEN/deconv3/weights"
      }
    }
  }
  attr {
    key: "_output_shapes"
    value {
      list {
        shape {
        }
      }
    }
  }
  attr {
    key: "dtype"
    value {
      type: DT_FLOAT
    }
  }
  attr {
    key: "value"
    value {
      tensor {
        dtype: DT_FLOAT
        tensor_shape {
        }
        float_val: 0.190029233694
      }
    }
  }
}
node {
  name: "GEN/deconv3/weights/Initializer/truncated_normal/TruncatedNormal"
  op: "TruncatedNormal"
  input: "GEN/deconv3/weights/Initializer/truncated_normal/shape"
  attr {
    key: "T"
    value {
      type: DT_INT32
    }
  }
  attr {
    key: "_class"
    value {
      list {
        s: "loc:@GEN/deconv3/weights"
      }
    }
  }
  attr {
    key: "_output_shapes"
    value {
      list {
        shape {
          dim {
            size: 3
          }
          dim {
            size: 3
          }
          dim {
            size: 8
          }
          dim {
            size: 16
          }
        }
      }
    }
  }
  attr {
    key: "dtype"
    value {
      type: DT_FLOAT
    }
  }
  attr {
    key: "seed"
    value {
      i: 0
    }
  }
  attr {
    key: "seed2"
    value {
      i: 250
    }
  }
}
node {
  name: "GEN/deconv3/weights/Initializer/truncated_normal/mul"
  op: "Mul"
  input: "GEN/deconv3/weights/Initializer/truncated_normal/TruncatedNormal"
  input: "GEN/deconv3/weights/Initializer/truncated_normal/stddev"
  attr {
    key: "T"
    value {
      type: DT_FLOAT
    }
  }
  attr {
    key: "_class"
    value {
      list {
        s: "loc:@GEN/deconv3/weights"
      }
    }
  }
  attr {
    key: "_output_shapes"
    value {
      list {
        shape {
          dim {
            size: 3
          }
          dim {
            size: 3
          }
          dim {
            size: 8
          }
          dim {
            size: 16
          }
        }
      }
    }
  }
}
node {
  name: "GEN/deconv3/weights/Initializer/truncated_normal"
  op: "Add"
  input: "GEN/deconv3/weights/Initializer/truncated_normal/mul"
  input: "GEN/deconv3/weights/Initializer/truncated_normal/mean"
  attr {
    key: "T"
    value {
      type: DT_FLOAT
    }
  }
  attr {
    key: "_class"
    value {
      list {
        s: "loc:@GEN/deconv3/weights"
      }
    }
  }
  attr {
    key: "_output_shapes"
    value {
      list {
        shape {
          dim {
            size: 3
          }
          dim {
            size: 3
          }
          dim {
            size: 8
          }
          dim {
            size: 16
          }
        }
      }
    }
  }
}
node {
  name: "GEN/deconv3/weights"
  op: "VariableV2"
  attr {
    key: "_class"
    value {
      list {
        s: "loc:@GEN/deconv3/weights"
      }
    }
  }
  attr {
    key: "_output_shapes"
    value {
      list {
        shape {
          dim {
            size: 3
          }
          dim {
            size: 3
          }
          dim {
            size: 8
          }
          dim {
            size: 16
          }
        }
      }
    }
  }
  attr {
    key: "container"
    value {
      s: ""
    }
  }
  attr {
    key: "dtype"
    value {
      type: DT_FLOAT
    }
  }
  attr {
    key: "shape"
    value {
      shape {
        dim {
          size: 3
        }
        dim {
          size: 3
        }
        dim {
          size: 8
        }
        dim {
          size: 16
        }
      }
    }
  }
  attr {
    key: "shared_name"
    value {
      s: ""
    }
  }
}
node {
  name: "GEN/deconv3/weights/Assign"
  op: "Assign"
  input: "GEN/deconv3/weights"
  input: "GEN/deconv3/weights/Initializer/truncated_normal"
  attr {
    key: "T"
    value {
      type: DT_FLOAT
    }
  }
  attr {
    key: "_class"
    value {
      list {
        s: "loc:@GEN/deconv3/weights"
      }
    }
  }
  attr {
    key: "_output_shapes"
    value {
      list {
        shape {
          dim {
            size: 3
          }
          dim {
            size: 3
          }
          dim {
            size: 8
          }
          dim {
            size: 16
          }
        }
      }
    }
  }
  attr {
    key: "use_locking"
    value {
      b: true
    }
  }
  attr {
    key: "validate_shape"
    value {
      b: true
    }
  }
}
node {
  name: "GEN/deconv3/weights/read"
  op: "Identity"
  input: "GEN/deconv3/weights"
  attr {
    key: "T"
    value {
      type: DT_FLOAT
    }
  }
  attr {
    key: "_class"
    value {
      list {
        s: "loc:@GEN/deconv3/weights"
      }
    }
  }
  attr {
    key: "_output_shapes"
    value {
      list {
        shape {
          dim {
            size: 3
          }
          dim {
            size: 3
          }
          dim {
            size: 8
          }
          dim {
            size: 16
          }
        }
      }
    }
  }
}
node {
  name: "GEN/deconv3/conv2d_transpose/output_shape"
  op: "Const"
  attr {
    key: "_output_shapes"
    value {
      list {
        shape {
          dim {
            size: 4
          }
        }
      }
    }
  }
  attr {
    key: "dtype"
    value {
      type: DT_INT32
    }
  }
  attr {
    key: "value"
    value {
      tensor {
        dtype: DT_INT32
        tensor_shape {
          dim {
            size: 4
          }
        }
        tensor_content: "2\000\000\000\020\000\000\000\020\000\000\000\010\000\000\000"
      }
    }
  }
}
node {
  name: "GEN/deconv3/conv2d_transpose"
  op: "Conv2DBackpropInput"
  input: "GEN/deconv3/conv2d_transpose/output_shape"
  input: "GEN/deconv3/weights/read"
  input: "GEN/deconv3/ResizeNearestNeighbor"
  attr {
    key: "T"
    value {
      type: DT_FLOAT
    }
  }
  attr {
    key: "_output_shapes"
    value {
      list {
        shape {
          dim {
            size: 50
          }
          dim {
            size: 16
          }
          dim {
            size: 16
          }
          dim {
            size: 8
          }
        }
      }
    }
  }
  attr {
    key: "data_format"
    value {
      s: "NHWC"
    }
  }
  attr {
    key: "padding"
    value {
      s: "SAME"
    }
  }
  attr {
    key: "strides"
    value {
      list {
        i: 1
        i: 1
        i: 1
        i: 1
      }
    }
  }
  attr {
    key: "use_cudnn_on_gpu"
    value {
      b: true
    }
  }
}
node {
  name: "GEN/deconv3/beta/Initializer/Const"
  op: "Const"
  attr {
    key: "_class"
    value {
      list {
        s: "loc:@GEN/deconv3/beta"
      }
    }
  }
  attr {
    key: "_output_shapes"
    value {
      list {
        shape {
          dim {
            size: 8
          }
        }
      }
    }
  }
  attr {
    key: "dtype"
    value {
      type: DT_FLOAT
    }
  }
  attr {
    key: "value"
    value {
      tensor {
        dtype: DT_FLOAT
        tensor_shape {
          dim {
            size: 8
          }
        }
        float_val: 0.0
      }
    }
  }
}
node {
  name: "GEN/deconv3/beta"
  op: "VariableV2"
  attr {
    key: "_class"
    value {
      list {
        s: "loc:@GEN/deconv3/beta"
      }
    }
  }
  attr {
    key: "_output_shapes"
    value {
      list {
        shape {
          dim {
            size: 8
          }
        }
      }
    }
  }
  attr {
    key: "container"
    value {
      s: ""
    }
  }
  attr {
    key: "dtype"
    value {
      type: DT_FLOAT
    }
  }
  attr {
    key: "shape"
    value {
      shape {
        dim {
          size: 8
        }
      }
    }
  }
  attr {
    key: "shared_name"
    value {
      s: ""
    }
  }
}
node {
  name: "GEN/deconv3/beta/Assign"
  op: "Assign"
  input: "GEN/deconv3/beta"
  input: "GEN/deconv3/beta/Initializer/Const"
  attr {
    key: "T"
    value {
      type: DT_FLOAT
    }
  }
  attr {
    key: "_class"
    value {
      list {
        s: "loc:@GEN/deconv3/beta"
      }
    }
  }
  attr {
    key: "_output_shapes"
    value {
      list {
        shape {
          dim {
            size: 8
          }
        }
      }
    }
  }
  attr {
    key: "use_locking"
    value {
      b: true
    }
  }
  attr {
    key: "validate_shape"
    value {
      b: true
    }
  }
}
node {
  name: "GEN/deconv3/beta/read"
  op: "Identity"
  input: "GEN/deconv3/beta"
  attr {
    key: "T"
    value {
      type: DT_FLOAT
    }
  }
  attr {
    key: "_class"
    value {
      list {
        s: "loc:@GEN/deconv3/beta"
      }
    }
  }
  attr {
    key: "_output_shapes"
    value {
      list {
        shape {
          dim {
            size: 8
          }
        }
      }
    }
  }
}
node {
  name: "GEN/deconv3/gamma/Initializer/Const"
  op: "Const"
  attr {
    key: "_class"
    value {
      list {
        s: "loc:@GEN/deconv3/gamma"
      }
    }
  }
  attr {
    key: "_output_shapes"
    value {
      list {
        shape {
          dim {
            size: 8
          }
        }
      }
    }
  }
  attr {
    key: "dtype"
    value {
      type: DT_FLOAT
    }
  }
  attr {
    key: "value"
    value {
      tensor {
        dtype: DT_FLOAT
        tensor_shape {
          dim {
            size: 8
          }
        }
        float_val: 1.0
      }
    }
  }
}
node {
  name: "GEN/deconv3/gamma"
  op: "VariableV2"
  attr {
    key: "_class"
    value {
      list {
        s: "loc:@GEN/deconv3/gamma"
      }
    }
  }
  attr {
    key: "_output_shapes"
    value {
      list {
        shape {
          dim {
            size: 8
          }
        }
      }
    }
  }
  attr {
    key: "container"
    value {
      s: ""
    }
  }
  attr {
    key: "dtype"
    value {
      type: DT_FLOAT
    }
  }
  attr {
    key: "shape"
    value {
      shape {
        dim {
          size: 8
        }
      }
    }
  }
  attr {
    key: "shared_name"
    value {
      s: ""
    }
  }
}
node {
  name: "GEN/deconv3/gamma/Assign"
  op: "Assign"
  input: "GEN/deconv3/gamma"
  input: "GEN/deconv3/gamma/Initializer/Const"
  attr {
    key: "T"
    value {
      type: DT_FLOAT
    }
  }
  attr {
    key: "_class"
    value {
      list {
        s: "loc:@GEN/deconv3/gamma"
      }
    }
  }
  attr {
    key: "_output_shapes"
    value {
      list {
        shape {
          dim {
            size: 8
          }
        }
      }
    }
  }
  attr {
    key: "use_locking"
    value {
      b: true
    }
  }
  attr {
    key: "validate_shape"
    value {
      b: true
    }
  }
}
node {
  name: "GEN/deconv3/gamma/read"
  op: "Identity"
  input: "GEN/deconv3/gamma"
  attr {
    key: "T"
    value {
      type: DT_FLOAT
    }
  }
  attr {
    key: "_class"
    value {
      list {
        s: "loc:@GEN/deconv3/gamma"
      }
    }
  }
  attr {
    key: "_output_shapes"
    value {
      list {
        shape {
          dim {
            size: 8
          }
        }
      }
    }
  }
}
node {
  name: "GEN/deconv3/moving_mean/Initializer/Const"
  op: "Const"
  attr {
    key: "_class"
    value {
      list {
        s: "loc:@GEN/deconv3/moving_mean"
      }
    }
  }
  attr {
    key: "_output_shapes"
    value {
      list {
        shape {
          dim {
            size: 8
          }
        }
      }
    }
  }
  attr {
    key: "dtype"
    value {
      type: DT_FLOAT
    }
  }
  attr {
    key: "value"
    value {
      tensor {
        dtype: DT_FLOAT
        tensor_shape {
          dim {
            size: 8
          }
        }
        float_val: 0.0
      }
    }
  }
}
node {
  name: "GEN/deconv3/moving_mean"
  op: "VariableV2"
  attr {
    key: "_class"
    value {
      list {
        s: "loc:@GEN/deconv3/moving_mean"
      }
    }
  }
  attr {
    key: "_output_shapes"
    value {
      list {
        shape {
          dim {
            size: 8
          }
        }
      }
    }
  }
  attr {
    key: "container"
    value {
      s: ""
    }
  }
  attr {
    key: "dtype"
    value {
      type: DT_FLOAT
    }
  }
  attr {
    key: "shape"
    value {
      shape {
        dim {
          size: 8
        }
      }
    }
  }
  attr {
    key: "shared_name"
    value {
      s: ""
    }
  }
}
node {
  name: "GEN/deconv3/moving_mean/Assign"
  op: "Assign"
  input: "GEN/deconv3/moving_mean"
  input: "GEN/deconv3/moving_mean/Initializer/Const"
  attr {
    key: "T"
    value {
      type: DT_FLOAT
    }
  }
  attr {
    key: "_class"
    value {
      list {
        s: "loc:@GEN/deconv3/moving_mean"
      }
    }
  }
  attr {
    key: "_output_shapes"
    value {
      list {
        shape {
          dim {
            size: 8
          }
        }
      }
    }
  }
  attr {
    key: "use_locking"
    value {
      b: true
    }
  }
  attr {
    key: "validate_shape"
    value {
      b: true
    }
  }
}
node {
  name: "GEN/deconv3/moving_mean/read"
  op: "Identity"
  input: "GEN/deconv3/moving_mean"
  attr {
    key: "T"
    value {
      type: DT_FLOAT
    }
  }
  attr {
    key: "_class"
    value {
      list {
        s: "loc:@GEN/deconv3/moving_mean"
      }
    }
  }
  attr {
    key: "_output_shapes"
    value {
      list {
        shape {
          dim {
            size: 8
          }
        }
      }
    }
  }
}
node {
  name: "GEN/deconv3/moving_var/Initializer/Const"
  op: "Const"
  attr {
    key: "_class"
    value {
      list {
        s: "loc:@GEN/deconv3/moving_var"
      }
    }
  }
  attr {
    key: "_output_shapes"
    value {
      list {
        shape {
          dim {
            size: 8
          }
        }
      }
    }
  }
  attr {
    key: "dtype"
    value {
…
  input: "DIS/conv1/weights/Adam_1"
  attr {
    key: "_class"
    value {
      list {
        s: "loc:@DIS/conv1/weights"
      }
    }
  }
  attr {
    key: "_output_shapes"
    value {
      list {
        shape {
        }
      }
    }
  }
  attr {
    key: "dtype"
    value {
      type: DT_FLOAT
    }
  }
}
node {
  name: "report_uninitialized_variables/IsVariableInitialized_105"
  op: "IsVariableInitialized"
  input: "DIS/conv1/beta/Adam"
  attr {
    key: "_class"
    value {
      list {
        s: "loc:@DIS/conv1/beta"
      }
    }
  }
  attr {
    key: "_output_shapes"
    value {
      list {
        shape {
        }
      }
    }
  }
  attr {
    key: "dtype"
    value {
      type: DT_FLOAT
    }
  }
}
node {
  name: "report_uninitialized_variables/IsVariableInitialized_106"
  op: "IsVariableInitialized"
  input: "DIS/conv1/beta/Adam_1"
  attr {
    key: "_class"
    value {
      list {
        s: "loc:@DIS/conv1/beta"
      }
    }
  }
  attr {
    key: "_output_shapes"
    value {
      list {
        shape {
        }
      }
    }
  }
  attr {
    key: "dtype"
    value {
      type: DT_FLOAT
    }
  }
}
node {
  name: "report_uninitialized_variables/IsVariableInitialized_107"
  op: "IsVariableInitialized"
  input: "DIS/conv1/gamma/Adam"
  attr {
    key: "_class"
    value {
      list {
        s: "loc:@DIS/conv1/gamma"
      }
    }
  }
  attr {
    key: "_output_shapes"
    value {
      list {
        shape {
        }
      }
    }
  }
  attr {
    key: "dtype"
    value {
      type: DT_FLOAT
    }
  }
}
node {
  name: "report_uninitialized_variables/IsVariableInitialized_108"
  op: "IsVariableInitialized"
  input: "DIS/conv1/gamma/Adam_1"
  attr {
    key: "_class"
    value {
      list {
        s: "loc:@DIS/conv1/gamma"
      }
    }
  }
  attr {
    key: "_output_shapes"
    value {
      list {
        shape {
        }
      }
    }
  }
  attr {
    key: "dtype"
    value {
      type: DT_FLOAT
    }
  }
}
node {
  name: "report_uninitialized_variables/IsVariableInitialized_109"
  op: "IsVariableInitialized"
  input: "DIS/conv2/weights/Adam"
  attr {
    key: "_class"
    value {
      list {
        s: "loc:@DIS/conv2/weights"
      }
    }
  }
  attr {
    key: "_output_shapes"
    value {
      list {
        shape {
        }
      }
    }
  }
  attr {
    key: "dtype"
    value {
      type: DT_FLOAT
    }
  }
}
node {
  name: "report_uninitialized_variables/IsVariableInitialized_110"
  op: "IsVariableInitialized"
  input: "DIS/conv2/weights/Adam_1"
  attr {
    key: "_class"
    value {
      list {
        s: "loc:@DIS/conv2/weights"
      }
    }
  }
  attr {
    key: "_output_shapes"
    value {
      list {
        shape {
        }
      }
    }
  }
  attr {
    key: "dtype"
    value {
      type: DT_FLOAT
    }
  }
}
node {
  name: "report_uninitialized_variables/IsVariableInitialized_111"
  op: "IsVariableInitialized"
  input: "DIS/conv2/beta/Adam"
  attr {
    key: "_class"
    value {
      list {
        s: "loc:@DIS/conv2/beta"
      }
    }
  }
  attr {
    key: "_output_shapes"
    value {
      list {
        shape {
        }
      }
    }
  }
  attr {
    key: "dtype"
    value {
      type: DT_FLOAT
    }
  }
}
node {
  name: "report_uninitialized_variables/IsVariableInitialized_112"
  op: "IsVariableInitialized"
  input: "DIS/conv2/beta/Adam_1"
  attr {
    key: "_class"
    value {
      list {
        s: "loc:@DIS/conv2/beta"
      }
    }
  }
  attr {
    key: "_output_shapes"
    value {
      list {
        shape {
        }
      }
    }
  }
  attr {
    key: "dtype"
    value {
      type: DT_FLOAT
    }
  }
}
node {
  name: "report_uninitialized_variables/IsVariableInitialized_113"
  op: "IsVariableInitialized"
  input: "DIS/conv2/gamma/Adam"
  attr {
    key: "_class"
    value {
      list {
        s: "loc:@DIS/conv2/gamma"
      }
    }
  }
  attr {
    key: "_output_shapes"
    value {
      list {
        shape {
        }
      }
    }
  }
  attr {
    key: "dtype"
    value {
      type: DT_FLOAT
    }
  }
}
node {
  name: "report_uninitialized_variables/IsVariableInitialized_114"
  op: "IsVariableInitialized"
  input: "DIS/conv2/gamma/Adam_1"
  attr {
    key: "_class"
    value {
      list {
        s: "loc:@DIS/conv2/gamma"
      }
    }
  }
  attr {
    key: "_output_shapes"
    value {
      list {
        shape {
        }
      }
    }
  }
  attr {
    key: "dtype"
    value {
      type: DT_FLOAT
    }
  }
}
node {
  name: "report_uninitialized_variables/IsVariableInitialized_115"
  op: "IsVariableInitialized"
  input: "DIS/conv3/weights/Adam"
  attr {
    key: "_class"
    value {
      list {
        s: "loc:@DIS/conv3/weights"
      }
    }
  }
  attr {
    key: "_output_shapes"
    value {
      list {
        shape {
        }
      }
    }
  }
  attr {
    key: "dtype"
    value {
      type: DT_FLOAT
    }
  }
}
node {
  name: "report_uninitialized_variables/IsVariableInitialized_116"
  op: "IsVariableInitialized"
  input: "DIS/conv3/weights/Adam_1"
  attr {
    key: "_class"
    value {
      list {
        s: "loc:@DIS/conv3/weights"
      }
    }
  }
  attr {
    key: "_output_shapes"
    value {
      list {
        shape {
        }
      }
    }
  }
  attr {
    key: "dtype"
    value {
      type: DT_FLOAT
    }
  }
}
node {
  name: "report_uninitialized_variables/IsVariableInitialized_117"
  op: "IsVariableInitialized"
  input: "DIS/conv3/beta/Adam"
  attr {
    key: "_class"
    value {
      list {
        s: "loc:@DIS/conv3/beta"
      }
    }
  }
  attr {
    key: "_output_shapes"
    value {
      list {
        shape {
        }
      }
    }
  }
  attr {
    key: "dtype"
    value {
      type: DT_FLOAT
    }
  }
}
node {
  name: "report_uninitialized_variables/IsVariableInitialized_118"
  op: "IsVariableInitialized"
  input: "DIS/conv3/beta/Adam_1"
  attr {
    key: "_class"
    value {
      list {
        s: "loc:@DIS/conv3/beta"
      }
    }
  }
  attr {
    key: "_output_shapes"
    value {
      list {
        shape {
        }
      }
    }
  }
  attr {
    key: "dtype"
    value {
      type: DT_FLOAT
    }
  }
}
node {
  name: "report_uninitialized_variables/IsVariableInitialized_119"
  op: "IsVariableInitialized"
  input: "DIS/conv3/gamma/Adam"
  attr {
    key: "_class"
    value {
      list {
        s: "loc:@DIS/conv3/gamma"
      }
    }
  }
  attr {
    key: "_output_shapes"
    value {
      list {
        shape {
        }
      }
    }
  }
  attr {
    key: "dtype"
    value {
      type: DT_FLOAT
    }
  }
}
node {
  name: "report_uninitialized_variables/IsVariableInitialized_120"
  op: "IsVariableInitialized"
  input: "DIS/conv3/gamma/Adam_1"
  attr {
    key: "_class"
    value {
      list {
        s: "loc:@DIS/conv3/gamma"
      }
    }
  }
  attr {
    key: "_output_shapes"
    value {
      list {
        shape {
        }
      }
    }
  }
  attr {
    key: "dtype"
    value {
      type: DT_FLOAT
    }
  }
}
node {
  name: "report_uninitialized_variables/IsVariableInitialized_121"
  op: "IsVariableInitialized"
  input: "DIS/conv4/weights/Adam"
  attr {
    key: "_class"
    value {
      list {
        s: "loc:@DIS/conv4/weights"
      }
    }
  }
  attr {
    key: "_output_shapes"
    value {
      list {
        shape {
        }
      }
    }
  }
  attr {
    key: "dtype"
    value {
      type: DT_FLOAT
    }
  }
}
node {
  name: "report_uninitialized_variables/IsVariableInitialized_122"
  op: "IsVariableInitialized"
  input: "DIS/conv4/weights/Adam_1"
  attr {
    key: "_class"
    value {
      list {
        s: "loc:@DIS/conv4/weights"
      }
    }
  }
  attr {
    key: "_output_shapes"
    value {
      list {
        shape {
        }
      }
    }
  }
  attr {
    key: "dtype"
    value {
      type: DT_FLOAT
    }
  }
}
node {
  name: "report_uninitialized_variables/IsVariableInitialized_123"
  op: "IsVariableInitialized"
  input: "DIS/conv4/beta/Adam"
  attr {
    key: "_class"
    value {
      list {
        s: "loc:@DIS/conv4/beta"
      }
    }
  }
  attr {
    key: "_output_shapes"
    value {
      list {
        shape {
        }
      }
    }
  }
  attr {
    key: "dtype"
    value {
      type: DT_FLOAT
    }
  }
}
node {
  name: "report_uninitialized_variables/IsVariableInitialized_124"
  op: "IsVariableInitialized"
  input: "DIS/conv4/beta/Adam_1"
  attr {
    key: "_class"
    value {
      list {
        s: "loc:@DIS/conv4/beta"
      }
    }
  }
  attr {
    key: "_output_shapes"
    value {
      list {
        shape {
        }
      }
    }
  }
  attr {
    key: "dtype"
    value {
      type: DT_FLOAT
    }
  }
}
node {
  name: "report_uninitialized_variables/IsVariableInitialized_125"
  op: "IsVariableInitialized"
  input: "DIS/conv4/gamma/Adam"
  attr {
    key: "_class"
    value {
      list {
        s: "loc:@DIS/conv4/gamma"
      }
    }
  }
  attr {
    key: "_output_shapes"
    value {
      list {
        shape {
        }
      }
    }
  }
  attr {
    key: "dtype"
    value {
      type: DT_FLOAT
    }
  }
}
node {
  name: "report_uninitialized_variables/IsVariableInitialized_126"
  op: "IsVariableInitialized"
  input: "DIS/conv4/gamma/Adam_1"
  attr {
    key: "_class"
    value {
      list {
        s: "loc:@DIS/conv4/gamma"
      }
    }
  }
  attr {
    key: "_output_shapes"
    value {
      list {
        shape {
        }
      }
    }
  }
  attr {
    key: "dtype"
    value {
      type: DT_FLOAT
    }
  }
}
node {
  name: "report_uninitialized_variables/IsVariableInitialized_127"
  op: "IsVariableInitialized"
  input: "DIS/conv5/weights/Adam"
  attr {
    key: "_class"
    value {
      list {
        s: "loc:@DIS/conv5/weights"
      }
    }
  }
  attr {
    key: "_output_shapes"
    value {
      list {
        shape {
        }
      }
    }
  }
  attr {
    key: "dtype"
    value {
      type: DT_FLOAT
    }
  }
}
node {
  name: "report_uninitialized_variables/IsVariableInitialized_128"
  op: "IsVariableInitialized"
  input: "DIS/conv5/weights/Adam_1"
  attr {
    key: "_class"
    value {
      list {
        s: "loc:@DIS/conv5/weights"
      }
    }
  }
  attr {
    key: "_output_shapes"
    value {
      list {
        shape {
        }
      }
    }
  }
  attr {
    key: "dtype"
    value {
      type: DT_FLOAT
    }
  }
}
node {
  name: "report_uninitialized_variables/IsVariableInitialized_129"
  op: "IsVariableInitialized"
  input: "DIS/conv5/beta/Adam"
  attr {
    key: "_class"
    value {
      list {
        s: "loc:@DIS/conv5/beta"
      }
    }
  }
  attr {
    key: "_output_shapes"
    value {
      list {
        shape {
        }
      }
    }
  }
  attr {
    key: "dtype"
    value {
      type: DT_FLOAT
    }
  }
}
node {
  name: "report_uninitialized_variables/IsVariableInitialized_130"
  op: "IsVariableInitialized"
  input: "DIS/conv5/beta/Adam_1"
  attr {
    key: "_class"
    value {
      list {
        s: "loc:@DIS/conv5/beta"
      }
    }
  }
  attr {
    key: "_output_shapes"
    value {
      list {
        shape {
        }
      }
    }
  }
  attr {
    key: "dtype"
    value {
      type: DT_FLOAT
    }
  }
}
node {
  name: "report_uninitialized_variables/IsVariableInitialized_131"
  op: "IsVariableInitialized"
  input: "DIS/conv5/gamma/Adam"
  attr {
    key: "_class"
    value {
      list {
        s: "loc:@DIS/conv5/gamma"
      }
    }
  }
  attr {
    key: "_output_shapes"
    value {
      list {
        shape {
        }
      }
    }
  }
  attr {
    key: "dtype"
    value {
      type: DT_FLOAT
    }
  }
}
node {
  name: "report_uninitialized_variables/IsVariableInitialized_132"
  op: "IsVariableInitialized"
  input: "DIS/conv5/gamma/Adam_1"
  attr {
    key: "_class"
    value {
      list {
        s: "loc:@DIS/conv5/gamma"
      }
    }
  }
  attr {
    key: "_output_shapes"
    value {
      list {
        shape {
        }
      }
    }
  }
  attr {
    key: "dtype"
    value {
      type: DT_FLOAT
    }
  }
}
node {
  name: "report_uninitialized_variables/IsVariableInitialized_133"
  op: "IsVariableInitialized"
  input: "DIS/conv6/weights/Adam"
  attr {
    key: "_class"
    value {
      list {
        s: "loc:@DIS/conv6/weights"
      }
    }
  }
  attr {
    key: "_output_shapes"
    value {
      list {
        shape {
        }
      }
    }
  }
  attr {
    key: "dtype"
    value {
      type: DT_FLOAT
    }
  }
}
node {
  name: "report_uninitialized_variables/IsVariableInitialized_134"
  op: "IsVariableInitialized"
  input: "DIS/conv6/weights/Adam_1"
  attr {
    key: "_class"
    value {
      list {
        s: "loc:@DIS/conv6/weights"
      }
    }
  }
  attr {
    key: "_output_shapes"
    value {
      list {
        shape {
        }
      }
    }
  }
  attr {
    key: "dtype"
    value {
      type: DT_FLOAT
    }
  }
}
node {
  name: "report_uninitialized_variables/IsVariableInitialized_135"
  op: "IsVariableInitialized"
  input: "DIS/conv6/beta/Adam"
  attr {
    key: "_class"
    value {
      list {
        s: "loc:@DIS/conv6/beta"
      }
    }
  }
  attr {
    key: "_output_shapes"
    value {
      list {
        shape {
        }
      }
    }
  }
  attr {
    key: "dtype"
    value {
      type: DT_FLOAT
    }
  }
}
node {
  name: "report_uninitialized_variables/IsVariableInitialized_136"
  op: "IsVariableInitialized"
  input: "DIS/conv6/beta/Adam_1"
  attr {
    key: "_class"
    value {
      list {
        s: "loc:@DIS/conv6/beta"
      }
    }
  }
  attr {
    key: "_output_shapes"
    value {
      list {
        shape {
        }
      }
    }
  }
  attr {
    key: "dtype"
    value {
      type: DT_FLOAT
    }
  }
}
node {
  name: "report_uninitialized_variables/IsVariableInitialized_137"
  op: "IsVariableInitialized"
  input: "DIS/conv6/gamma/Adam"
  attr {
    key: "_class"
    value {
      list {
        s: "loc:@DIS/conv6/gamma"
      }
    }
  }
  attr {
    key: "_output_shapes"
    value {
      list {
        shape {
        }
      }
    }
  }
  attr {
    key: "dtype"
    value {
      type: DT_FLOAT
    }
  }
}
node {
  name: "report_uninitialized_variables/IsVariableInitialized_138"
  op: "IsVariableInitialized"
  input: "DIS/conv6/gamma/Adam_1"
  attr {
    key: "_class"
    value {
      list {
        s: "loc:@DIS/conv6/gamma"
      }
    }
  }
  attr {
    key: "_output_shapes"
    value {
      list {
        shape {
        }
      }
    }
  }
  attr {
    key: "dtype"
    value {
      type: DT_FLOAT
    }
  }
}
node {
  name: "report_uninitialized_variables/IsVariableInitialized_139"
  op: "IsVariableInitialized"
  input: "DIS/fc_out/weights/Adam"
  attr {
    key: "_class"
    value {
      list {
        s: "loc:@DIS/fc_out/weights"
      }
    }
  }
  attr {
    key: "_output_shapes"
    value {
      list {
        shape {
        }
      }
    }
  }
  attr {
    key: "dtype"
    value {
      type: DT_FLOAT
    }
  }
}
node {
  name: "report_uninitialized_variables/IsVariableInitialized_140"
  op: "IsVariableInitialized"
  input: "DIS/fc_out/weights/Adam_1"
  attr {
    key: "_class"
    value {
      list {
        s: "loc:@DIS/fc_out/weights"
      }
    }
  }
  attr {
    key: "_output_shapes"
    value {
      list {
        shape {
        }
      }
    }
  }
  attr {
    key: "dtype"
    value {
      type: DT_FLOAT
    }
  }
}
node {
  name: "report_uninitialized_variables/stack"
  op: "Pack"
  input: "report_uninitialized_variables/IsVariableInitialized"
  input: "report_uninitialized_variables/IsVariableInitialized_1"
  input: "report_uninitialized_variables/IsVariableInitialized_2"
  input: "report_uninitialized_variables/IsVariableInitialized_3"
  input: "report_uninitialized_variables/IsVariableInitialized_4"
  input: "report_uninitialized_variables/IsVariableInitialized_5"
  input: "report_uninitialized_variables/IsVariableInitialized_6"
  input: "report_uninitialized_variables/IsVariableInitialized_7"
  input: "report_uninitialized_variables/IsVariableInitialized_8"
  input: "report_uninitialized_variables/IsVariableInitialized_9"
  input: "report_uninitialized_variables/IsVariableInitialized_10"
  input: "report_uninitialized_variables/IsVariableInitialized_11"
  input: "report_uninitialized_variables/IsVariableInitialized_12"
  input: "report_uninitialized_variables/IsVariableInitialized_13"
  input: "report_uninitialized_variables/IsVariableInitialized_14"
  input: "report_uninitialized_variables/IsVariableInitialized_15"
  input: "report_uninitialized_variables/IsVariableInitialized_16"
  input: "report_uninitialized_variables/IsVariableInitialized_17"
  input: "report_uninitialized_variables/IsVariableInitialized_18"
  input: "report_uninitialized_variables/IsVariableInitialized_19"
  input: "report_uninitialized_variables/IsVariableInitialized_20"
  input: "report_uninitialized_variables/IsVariableInitialized_21"
  input: "report_uninitialized_variables/IsVariableInitialized_22"
  input: "report_uninitialized_variables/IsVariableInitialized_23"
  input: "report_uninitialized_variables/IsVariableInitialized_24"
  input: "report_uninitialized_variables/IsVariableInitialized_25"
  input: "report_uninitialized_variables/IsVariableInitialized_26"
  input: "report_uninitialized_variables/IsVariableInitialized_27"
  input: "report_uninitialized_variables/IsVariableInitialized_28"
  input: "report_uninitialized_variables/IsVariableInitialized_29"
  input: "report_uninitialized_variables/IsVariableInitialized_30"
  input: "report_uninitialized_variables/IsVariableInitialized_31"
  input: "report_uninitialized_variables/IsVariableInitialized_32"
  input: "report_uninitialized_variables/IsVariableInitialized_33"
  input: "report_uninitialized_variables/IsVariableInitialized_34"
  input: "report_uninitialized_variables/IsVariableInitialized_35"
  input: "report_uninitialized_variables/IsVariableInitialized_36"
  input: "report_uninitialized_variables/IsVariableInitialized_37"
  input: "report_uninitialized_variables/IsVariableInitialized_38"
  input: "report_uninitialized_variables/IsVariableInitialized_39"
  input: "report_uninitialized_variables/IsVariableInitialized_40"
  input: "report_uninitialized_variables/IsVariableInitialized_41"
  input: "report_uninitialized_variables/IsVariableInitialized_42"
  input: "report_uninitialized_variables/IsVariableInitialized_43"
  input: "report_uninitialized_variables/IsVariableInitialized_44"
  input: "report_uninitialized_variables/IsVariableInitialized_45"
  input: "report_uninitialized_variables/IsVariableInitialized_46"
  input: "report_uninitialized_variables/IsVariableInitialized_47"
  input: "report_uninitialized_variables/IsVariableInitialized_48"
  input: "report_uninitialized_variables/IsVariableInitialized_49"
  input: "report_uninitialized_variables/IsVariableInitialized_50"
  input: "report_uninitialized_variables/IsVariableInitialized_51"
  input: "report_uninitialized_variables/IsVariableInitialized_52"
  input: "report_uninitialized_variables/IsVariableInitialized_53"
  input: "report_uninitialized_variables/IsVariableInitialized_54"
  input: "report_uninitialized_variables/IsVariableInitialized_55"
  input: "report_uninitialized_variables/IsVariableInitialized_56"
  input: "report_uninitialized_variables/IsVariableInitialized_57"
  input: "report_uninitialized_variables/IsVariableInitialized_58"
  input: "report_uninitialized_variables/IsVariableInitialized_59"
  input: "report_uninitialized_variables/IsVariableInitialized_60"
  input: "report_uninitialized_variables/IsVariableInitialized_61"
  input: "report_uninitialized_variables/IsVariableInitialized_62"
  input: "report_uninitialized_variables/IsVariableInitialized_63"
  input: "report_uninitialized_variables/IsVariableInitialized_64"
  input: "report_uninitialized_variables/IsVariableInitialized_65"
  input: "report_uninitialized_variables/IsVariableInitialized_66"
  input: "report_uninitialized_variables/IsVariableInitialized_67"
  input: "report_uninitialized_variables/IsVariableInitialized_68"
  input: "report_uninitialized_variables/IsVariableInitialized_69"
  input: "report_uninitialized_variables/IsVariableInitialized_70"
  input: "report_uninitialized_variables/IsVariableInitialized_71"
  input: "report_uninitialized_variables/IsVariableInitialized_72"
  input: "report_uninitialized_variables/IsVariableInitialized_73"
  input: "report_uninitialized_variables/IsVariableInitialized_74"
  input: "report_uninitialized_variables/IsVariableInitialized_75"
  input: "report_uninitialized_variables/IsVariableInitialized_76"
  input: "report_uninitialized_variables/IsVariableInitialized_77"
  input: "report_uninitialized_variables/IsVariableInitialized_78"
  input: "report_uninitialized_variables/IsVariableInitialized_79"
  input: "report_uninitialized_variables/IsVariableInitialized_80"
  input: "report_uninitialized_variables/IsVariableInitialized_81"
  input: "report_uninitialized_variables/IsVariableInitialized_82"
  input: "report_uninitialized_variables/IsVariableInitialized_83"
  input: "report_uninitialized_variables/IsVariableInitialized_84"
  input: "report_uninitialized_variables/IsVariableInitialized_85"
  input: "report_uninitialized_variables/IsVariableInitialized_86"
  input: "report_uninitialized_variables/IsVariableInitialized_87"
  input: "report_uninitialized_variables/IsVariableInitialized_88"
  input: "report_uninitialized_variables/IsVariableInitialized_89"
  input: "report_uninitialized_variables/IsVariableInitialized_90"
  input: "report_uninitialized_variables/IsVariableInitialized_91"
  input: "report_uninitialized_variables/IsVariableInitialized_92"
  input: "report_uninitialized_variables/IsVariableInitialized_93"
  input: "report_uninitialized_variables/IsVariableInitialized_94"
  input: "report_uninitialized_variables/IsVariableInitialized_95"
  input: "report_uninitialized_variables/IsVariableInitialized_96"
  input: "report_uninitialized_variables/IsVariableInitialized_97"
  input: "report_uninitialized_variables/IsVariableInitialized_98"
  input: "report_uninitialized_variables/IsVariableInitialized_99"
  input: "report_uninitialized_variables/IsVariableInitialized_100"
  input: "report_uninitialized_variables/IsVariableInitialized_101"
  input: "report_uninitialized_variables/IsVariableInitialized_102"
  input: "report_uninitialized_variables/IsVariableInitialized_103"
  input: "report_uninitialized_variables/IsVariableInitialized_104"
  input: "report_uninitialized_variables/IsVariableInitialized_105"
  input: "report_uninitialized_variables/IsVariableInitialized_106"
  input: "report_uninitialized_variables/IsVariableInitialized_107"
  input: "report_uninitialized_variables/IsVariableInitialized_108"
  input: "report_uninitialized_variables/IsVariableInitialized_109"
  input: "report_uninitialized_variables/IsVariableInitialized_110"
  input: "report_uninitialized_variables/IsVariableInitialized_111"
  input: "report_uninitialized_variables/IsVariableInitialized_112"
  input: "report_uninitialized_variables/IsVariableInitialized_113"
  input: "report_uninitialized_variables/IsVariableInitialized_114"
  input: "report_uninitialized_variables/IsVariableInitialized_115"
  input: "report_uninitialized_variables/IsVariableInitialized_116"
  input: "report_uninitialized_variables/IsVariableInitialized_117"
  input: "report_uninitialized_variables/IsVariableInitialized_118"
  input: "report_uninitialized_variables/IsVariableInitialized_119"
  input: "report_uninitialized_variables/IsVariableInitialized_120"
  input: "report_uninitialized_variables/IsVariableInitialized_121"
  input: "report_uninitialized_variables/IsVariableInitialized_122"
  input: "report_uninitialized_variables/IsVariableInitialized_123"
  input: "report_uninitialized_variables/IsVariableInitialized_124"
  input: "report_uninitialized_variables/IsVariableInitialized_125"
  input: "report_uninitialized_variables/IsVariableInitialized_126"
  input: "report_uninitialized_variables/IsVariableInitialized_127"
  input: "report_uninitialized_variables/IsVariableInitialized_128"
  input: "report_uninitialized_variables/IsVariableInitialized_129"
  input: "report_uninitialized_variables/IsVariableInitialized_130"
  input: "report_uninitialized_variables/IsVariableInitialized_131"
  input: "report_uninitialized_variables/IsVariableInitialized_132"
  input: "report_uninitialized_variables/IsVariableInitialized_133"
  input: "report_uninitialized_variables/IsVariableInitialized_134"
  input: "report_uninitialized_variables/IsVariableInitialized_135"
  input: "report_uninitialized_variables/IsVariableInitialized_136"
  input: "report_uninitialized_variables/IsVariableInitialized_137"
  input: "report_uninitialized_variables/IsVariableInitialized_138"
  input: "report_uninitialized_variables/IsVariableInitialized_139"
  input: "report_uninitialized_variables/IsVariableInitialized_140"
  device: "/device:CPU:0"
  attr {
    key: "N"
    value {
      i: 141
    }
  }
  attr {
    key: "T"
    value {
      type: DT_BOOL
    }
  }
  attr {
    key: "_output_shapes"
    value {
      list {
        shape {
          dim {
            size: 141
          }
        }
      }
    }
  }
  attr {
    key: "axis"
    value {
      i: 0
    }
  }
}
node {
  name: "report_uninitialized_variables/LogicalNot"
  op: "LogicalNot"
  input: "report_uninitialized_variables/stack"
  device: "/device:CPU:0"
  attr {
    key: "_output_shapes"
    value {
      list {
        shape {
          dim {
            size: 141
          }
        }
      }
    }
  }
}
node {
  name: "report_uninitialized_variables/Const"
  op: "Const"
  device: "/device:CPU:0"
  attr {
    key: "_output_shapes"
    value {
      list {
        shape {
          dim {
            size: 141
          }
        }
      }
    }
  }
  attr {
    key: "dtype"
    value {
      type: DT_STRING
    }
  }
  attr {
    key: "value"
    value {
      tensor {
        dtype: DT_STRING
        tensor_shape {
          dim {
            size: 141
          }
        }
        string_val: "step"
        string_val: "lr"
        string_val: "GEN/fc1/weights"
        string_val: "GEN/fc1/beta"
        string_val: "GEN/fc1/gamma"
        string_val: "GEN/fc1/moving_mean"
        string_val: "GEN/fc1/moving_var"
        string_val: "GEN/deconv1/weights"
        string_val: "GEN/deconv1/beta"
        string_val: "GEN/deconv1/gamma"
        string_val: "GEN/deconv1/moving_mean"
        string_val: "GEN/deconv1/moving_var"
        string_val: "GEN/deconv2/weights"
        string_val: "GEN/deconv2/beta"
        string_val: "GEN/deconv2/gamma"
        string_val: "GEN/deconv2/moving_mean"
        string_val: "GEN/deconv2/moving_var"
        string_val: "GEN/deconv3/weights"
        string_val: "GEN/deconv3/beta"
        string_val: "GEN/deconv3/gamma"
        string_val: "GEN/deconv3/moving_mean"
        string_val: "GEN/deconv3/moving_var"
        string_val: "GEN/deconv4/weights"
        string_val: "GEN/deconv4/beta"
        string_val: "GEN/deconv4/gamma"
        string_val: "GEN/deconv4/moving_mean"
        string_val: "GEN/deconv4/moving_var"
        string_val: "GEN/deconv6/weights"
        string_val: "GEN/deconv6/beta"
        string_val: "GEN/deconv6/gamma"
        string_val: "GEN/deconv6/moving_mean"
        string_val: "GEN/deconv6/moving_var"
        string_val: "DIS/conv1/weights"
        string_val: "DIS/conv1/beta"
        string_val: "DIS/conv1/gamma"
        string_val: "DIS/conv1/moving_mean"
        string_val: "DIS/conv1/moving_var"
        string_val: "DIS/conv2/weights"
        string_val: "DIS/conv2/beta"
        string_val: "DIS/conv2/gamma"
        string_val: "DIS/conv2/moving_mean"
        string_val: "DIS/conv2/moving_var"
        string_val: "DIS/conv3/weights"
        string_val: "DIS/conv3/beta"
        string_val: "DIS/conv3/gamma"
        string_val: "DIS/conv3/moving_mean"
        string_val: "DIS/conv3/moving_var"
        string_val: "DIS/conv4/weights"
        string_val: "DIS/conv4/beta"
        string_val: "DIS/conv4/gamma"
        string_val: "DIS/conv4/moving_mean"
        string_val: "DIS/conv4/moving_var"
        string_val: "DIS/conv5/weights"
        string_val: "DIS/conv5/beta"
        string_val: "DIS/conv5/gamma"
        string_val: "DIS/conv5/moving_mean"
        string_val: "DIS/conv5/moving_var"
        string_val: "DIS/conv6/weights"
        string_val: "DIS/conv6/beta"
        string_val: "DIS/conv6/gamma"
        string_val: "DIS/conv6/moving_mean"
        string_val: "DIS/conv6/moving_var"
        string_val: "DIS/fc_out/weights"
        string_val: "beta1_power"
        string_val: "beta2_power"
        string_val: "GEN/fc1/weights/Adam"
        string_val: "GEN/fc1/weights/Adam_1"
        string_val: "GEN/fc1/beta/Adam"
        string_val: "GEN/fc1/beta/Adam_1"
        string_val: "GEN/fc1/gamma/Adam"
        string_val: "GEN/fc1/gamma/Adam_1"
        string_val: "GEN/deconv1/weights/Adam"
        string_val: "GEN/deconv1/weights/Adam_1"
        string_val: "GEN/deconv1/beta/Adam"
        string_val: "GEN/deconv1/beta/Adam_1"
        string_val: "GEN/deconv1/gamma/Adam"
        string_val: "GEN/deconv1/gamma/Adam_1"
        string_val: "GEN/deconv2/weights/Adam"
        string_val: "GEN/deconv2/weights/Adam_1"
        string_val: "GEN/deconv2/beta/Adam"
        string_val: "GEN/deconv2/beta/Adam_1"
        string_val: "GEN/deconv2/gamma/Adam"
        string_val: "GEN/deconv2/gamma/Adam_1"
        string_val: "GEN/deconv3/weights/Adam"
        string_val: "GEN/deconv3/weights/Adam_1"
        string_val: "GEN/deconv3/beta/Adam"
        string_val: "GEN/deconv3/beta/Adam_1"
        string_val: "GEN/deconv3/gamma/Adam"
        string_val: "GEN/deconv3/gamma/Adam_1"
        string_val: "GEN/deconv4/weights/Adam"
        string_val: "GEN/deconv4/weights/Adam_1"
        string_val: "GEN/deconv4/beta/Adam"
        string_val: "GEN/deconv4/beta/Adam_1"
        string_val: "GEN/deconv4/gamma/Adam"
        string_val: "GEN/deconv4/gamma/Adam_1"
        string_val: "GEN/deconv6/weights/Adam"
        string_val: "GEN/deconv6/weights/Adam_1"
        string_val: "GEN/deconv6/beta/Adam"
        string_val: "GEN/deconv6/beta/Adam_1"
        string_val: "GEN/deconv6/gamma/Adam"
        string_val: "GEN/deconv6/gamma/Adam_1"
        string_val: "beta1_power_1"
        string_val: "beta2_power_1"
        string_val: "DIS/conv1/weights/Adam"
        string_val: "DIS/conv1/weights/Adam_1"
        string_val: "DIS/conv1/beta/Adam"
        string_val: "DIS/conv1/beta/Adam_1"
        string_val: "DIS/conv1/gamma/Adam"
        string_val: "DIS/conv1/gamma/Adam_1"
        string_val: "DIS/conv2/weights/Adam"
        string_val: "DIS/conv2/weights/Adam_1"
        string_val: "DIS/conv2/beta/Adam"
        string_val: "DIS/conv2/beta/Adam_1"
        string_val: "DIS/conv2/gamma/Adam"
        string_val: "DIS/conv2/gamma/Adam_1"
        string_val: "DIS/conv3/weights/Adam"
        string_val: "DIS/conv3/weights/Adam_1"
        string_val: "DIS/conv3/beta/Adam"
        string_val: "DIS/conv3/beta/Adam_1"
        string_val: "DIS/conv3/gamma/Adam"
        string_val: "DIS/conv3/gamma/Adam_1"
        string_val: "DIS/conv4/weights/Adam"
        string_val: "DIS/conv4/weights/Adam_1"
        string_val: "DIS/conv4/beta/Adam"
        string_val: "DIS/conv4/beta/Adam_1"
        string_val: "DIS/conv4/gamma/Adam"
        string_val: "DIS/conv4/gamma/Adam_1"
        string_val: "DIS/conv5/weights/Adam"
        string_val: "DIS/conv5/weights/Adam_1"
        string_val: "DIS/conv5/beta/Adam"
        string_val: "DIS/conv5/beta/Adam_1"
        string_val: "DIS/conv5/gamma/Adam"
        string_val: "DIS/conv5/gamma/Adam_1"
        string_val: "DIS/conv6/weights/Adam"
        string_val: "DIS/conv6/weights/Adam_1"
        string_val: "DIS/conv6/beta/Adam"
        string_val: "DIS/conv6/beta/Adam_1"
        string_val: "DIS/conv6/gamma/Adam"
        string_val: "DIS/conv6/gamma/Adam_1"
        string_val: "DIS/fc_out/weights/Adam"
        string_val: "DIS/fc_out/weights/Adam_1"
      }
    }
  }
}
node {
  name: "report_uninitialized_variables/boolean_mask/Shape"
  op: "Const"
  device: "/device:CPU:0"
  attr {
    key: "_output_shapes"
    value {
      list {
        shape {
          dim {
            size: 1
          }
        }
      }
    }
  }
  attr {
    key: "dtype"
    value {
      type: DT_INT32
    }
  }
  attr {
    key: "value"
    value {
      tensor {
        dtype: DT_INT32
        tensor_shape {
          dim {
            size: 1
          }
        }
        int_val: 141
      }
    }
  }
}
node {
  name: "report_uninitialized_variables/boolean_mask/strided_slice/stack"
  op: "Const"
  device: "/device:CPU:0"
  attr {
    key: "_output_shapes"
    value {
      list {
        shape {
          dim {
            size: 1
          }
        }
      }
    }
  }
  attr {
    key: "dtype"
    value {
      type: DT_INT32
    }
  }
  attr {
    key: "value"
    value {
      tensor {
        dtype: DT_INT32
        tensor_shape {
          dim {
            size: 1
          }
        }
        int_val: 0
      }
    }
  }
}
node {
  name: "report_uninitialized_variables/boolean_mask/strided_slice/stack_1"
  op: "Const"
  device: "/device:CPU:0"
  attr {
    key: "_output_shapes"
    value {
      list {
        shape {
          dim {
            size: 1
          }
        }
      }
    }
  }
  attr {
    key: "dtype"
    value {
      type: DT_INT32
    }
  }
  attr {
    key: "value"
    value {
      tensor {
        dtype: DT_INT32
        tensor_shape {
          dim {
            size: 1
          }
        }
        int_val: 1
      }
    }
  }
}
node {
  name: "report_uninitialized_variables/boolean_mask/strided_slice/stack_2"
  op: "Const"
  device: "/device:CPU:0"
  attr {
    key: "_output_shapes"
    value {
      list {
        shape {
          dim {
            size: 1
          }
        }
      }
    }
  }
  attr {
    key: "dtype"
    value {
      type: DT_INT32
    }
  }
  attr {
    key: "value"
    value {
      tensor {
        dtype: DT_INT32
        tensor_shape {
          dim {
            size: 1
          }
        }
        int_val: 1
      }
    }
  }
}
node {
  name: "report_uninitialized_variables/boolean_mask/strided_slice"
  op: "StridedSlice"
  input: "report_uninitialized_variables/boolean_mask/Shape"
  input: "report_uninitialized_variables/boolean_mask/strided_slice/stack"
  input: "report_uninitialized_variables/boolean_mask/strided_slice/stack_1"
  input: "report_uninitialized_variables/boolean_mask/strided_slice/stack_2"
  device: "/device:CPU:0"
  attr {
    key: "Index"
    value {
      type: DT_INT32
    }
  }
  attr {
    key: "T"
    value {
      type: DT_INT32
    }
  }
  attr {
    key: "_output_shapes"
    value {
      list {
        shape {
          dim {
            size: 1
          }
        }
      }
    }
  }
  attr {
    key: "begin_mask"
    value {
      i: 1
    }
  }
  attr {
    key: "ellipsis_mask"
    value {
      i: 0
    }
  }
  attr {
    key: "end_mask"
    value {
      i: 0
    }
  }
  attr {
    key: "new_axis_mask"
    value {
      i: 0
    }
  }
  attr {
    key: "shrink_axis_mask"
    value {
      i: 0
    }
  }
}
node {
  name: "report_uninitialized_variables/boolean_mask/Prod/reduction_indices"
  op: "Const"
  device: "/device:CPU:0"
  attr {
    key: "_output_shapes"
    value {
      list {
        shape {
          dim {
            size: 1
          }
        }
      }
    }
  }
  attr {
    key: "dtype"
    value {
      type: DT_INT32
    }
  }
  attr {
    key: "value"
    value {
      tensor {
        dtype: DT_INT32
        tensor_shape {
          dim {
            size: 1
          }
        }
        int_val: 0
      }
    }
  }
}
node {
  name: "report_uninitialized_variables/boolean_mask/Prod"
  op: "Prod"
  input: "report_uninitialized_variables/boolean_mask/strided_slice"
  input: "report_uninitialized_variables/boolean_mask/Prod/reduction_indices"
  device: "/device:CPU:0"
  attr {
    key: "T"
    value {
      type: DT_INT32
    }
  }
  attr {
    key: "Tidx"
    value {
      type: DT_INT32
    }
  }
  attr {
    key: "_output_shapes"
    value {
      list {
        shape {
        }
      }
    }
  }
  attr {
    key: "keep_dims"
    value {
      b: false
    }
  }
}
node {
  name: "report_uninitialized_variables/boolean_mask/Shape_1"
  op: "Const"
  device: "/device:CPU:0"
  attr {
    key: "_output_shapes"
    value {
      list {
        shape {
          dim {
            size: 1
          }
        }
      }
    }
  }
  attr {
    key: "dtype"
    value {
      type: DT_INT32
    }
  }
  attr {
    key: "value"
    value {
      tensor {
        dtype: DT_INT32
        tensor_shape {
          dim {
            size: 1
          }
        }
        int_val: 141
      }
    }
  }
}
node {
  name: "report_uninitialized_variables/boolean_mask/strided_slice_1/stack"
  op: "Const"
  device: "/device:CPU:0"
  attr {
    key: "_output_shapes"
    value {
      list {
        shape {
          dim {
            size: 1
          }
        }
      }
    }
  }
  attr {
    key: "dtype"
    value {
      type: DT_INT32
    }
  }
  attr {
    key: "value"
    value {
      tensor {
        dtype: DT_INT32
        tensor_shape {
          dim {
            size: 1
          }
        }
        int_val: 1
      }
    }
  }
}
node {
  name: "report_uninitialized_variables/boolean_mask/strided_slice_1/stack_1"
  op: "Const"
  device: "/device:CPU:0"
  attr {
    key: "_output_shapes"
    value {
      list {
        shape {
          dim {
            size: 1
          }
        }
      }
    }
  }
  attr {
    key: "dtype"
    value {
      type: DT_INT32
    }
  }
  attr {
    key: "value"
    value {
      tensor {
        dtype: DT_INT32
        tensor_shape {
          dim {
            size: 1
          }
        }
        int_val: 0
      }
    }
  }
}
node {
  name: "report_uninitialized_variables/boolean_mask/strided_slice_1/stack_2"
  op: "Const"
  device: "/device:CPU:0"
  attr {
    key: "_output_shapes"
    value {
      list {
        shape {
          dim {
            size: 1
          }
        }
      }
    }
  }
  attr {
    key: "dtype"
    value {
      type: DT_INT32
    }
  }
  attr {
    key: "value"
    value {
      tensor {
        dtype: DT_INT32
        tensor_shape {
          dim {
            size: 1
          }
        }
        int_val: 1
      }
    }
  }
}
node {
  name: "report_uninitialized_variables/boolean_mask/strided_slice_1"
  op: "StridedSlice"
  input: "report_uninitialized_variables/boolean_mask/Shape_1"
  input: "report_uninitialized_variables/boolean_mask/strided_slice_1/stack"
  input: "report_uninitialized_variables/boolean_mask/strided_slice_1/stack_1"
  input: "report_uninitialized_variables/boolean_mask/strided_slice_1/stack_2"
  device: "/device:CPU:0"
  attr {
    key: "Index"
    value {
      type: DT_INT32
    }
  }
  attr {
    key: "T"
    value {
      type: DT_INT32
    }
  }
  attr {
    key: "_output_shapes"
    value {
      list {
        shape {
          dim {
          }
        }
      }
    }
  }
  attr {
    key: "begin_mask"
    value {
      i: 0
    }
  }
  attr {
    key: "ellipsis_mask"
    value {
      i: 0
    }
  }
  attr {
    key: "end_mask"
    value {
      i: 1
    }
  }
  attr {
    key: "new_axis_mask"
    value {
      i: 0
    }
  }
  attr {
    key: "shrink_axis_mask"
    value {
      i: 0
    }
  }
}
node {
  name: "report_uninitialized_variables/boolean_mask/concat/values_0"
  op: "Pack"
  input: "report_uninitialized_variables/boolean_mask/Prod"
  device: "/device:CPU:0"
  attr {
    key: "N"
    value {
      i: 1
    }
  }
  attr {
    key: "T"
    value {
      type: DT_INT32
    }
  }
  attr {
    key: "_output_shapes"
    value {
      list {
        shape {
          dim {
            size: 1
          }
        }
      }
    }
  }
  attr {
    key: "axis"
    value {
      i: 0
    }
  }
}
node {
  name: "report_uninitialized_variables/boolean_mask/concat/axis"
  op: "Const"
  device: "/device:CPU:0"
  attr {
    key: "_output_shapes"
    value {
      list {
        shape {
        }
      }
    }
  }
  attr {
    key: "dtype"
    value {
      type: DT_INT32
    }
  }
  attr {
    key: "value"
    value {
      tensor {
        dtype: DT_INT32
        tensor_shape {
        }
        int_val: 0
      }
    }
  }
}
node {
  name: "report_uninitialized_variables/boolean_mask/concat"
  op: "ConcatV2"
  input: "report_uninitialized_variables/boolean_mask/concat/values_0"
  input: "report_uninitialized_variables/boolean_mask/strided_slice_1"
  input: "report_uninitialized_variables/boolean_mask/concat/axis"
  device: "/device:CPU:0"
  attr {
    key: "N"
    value {
      i: 2
    }
  }
  attr {
    key: "T"
    value {
      type: DT_INT32
    }
  }
  attr {
    key: "Tidx"
    value {
      type: DT_INT32
    }
  }
  attr {
    key: "_output_shapes"
    value {
      list {
        shape {
          dim {
            size: 1
          }
        }
      }
    }
  }
}
node {
  name: "report_uninitialized_variables/boolean_mask/Reshape"
  op: "Reshape"
  input: "report_uninitialized_variables/Const"
  input: "report_uninitialized_variables/boolean_mask/concat"
  device: "/device:CPU:0"
  attr {
    key: "T"
    value {
      type: DT_STRING
    }
  }
  attr {
    key: "Tshape"
    value {
      type: DT_INT32
    }
  }
  attr {
    key: "_output_shapes"
    value {
      list {
        shape {
          dim {
            size: 141
          }
        }
      }
    }
  }
}
node {
  name: "report_uninitialized_variables/boolean_mask/Reshape_1/shape"
  op: "Const"
  device: "/device:CPU:0"
  attr {
    key: "_output_shapes"
    value {
      list {
        shape {
          dim {
            size: 1
          }
        }
      }
    }
  }
  attr {
    key: "dtype"
    value {
      type: DT_INT32
    }
  }
  attr {
    key: "value"
    value {
      tensor {
        dtype: DT_INT32
        tensor_shape {
          dim {
            size: 1
          }
        }
        int_val: -1
      }
    }
  }
}
node {
  name: "report_uninitialized_variables/boolean_mask/Reshape_1"
  op: "Reshape"
  input: "report_uninitialized_variables/LogicalNot"
  input: "report_uninitialized_variables/boolean_mask/Reshape_1/shape"
  device: "/device:CPU:0"
  attr {
    key: "T"
    value {
      type: DT_BOOL
    }
  }
  attr {
    key: "Tshape"
    value {
      type: DT_INT32
    }
  }
  attr {
    key: "_output_shapes"
    value {
      list {
        shape {
          dim {
            size: 141
          }
        }
      }
    }
  }
}
node {
  name: "report_uninitialized_variables/boolean_mask/Where"
  op: "Where"
  input: "report_uninitialized_variables/boolean_mask/Reshape_1"
  device: "/device:CPU:0"
  attr {
    key: "_output_shapes"
    value {
      list {
        shape {
          dim {
            size: -1
          }
          dim {
            size: 1
          }
        }
      }
    }
  }
}
node {
  name: "report_uninitialized_variables/boolean_mask/Squeeze"
  op: "Squeeze"
  input: "report_uninitialized_variables/boolean_mask/Where"
  device: "/device:CPU:0"
  attr {
    key: "T"
    value {
      type: DT_INT64
    }
  }
  attr {
    key: "_output_shapes"
    value {
      list {
        shape {
          dim {
            size: -1
          }
        }
      }
    }
  }
  attr {
    key: "squeeze_dims"
    value {
      list {
        i: 1
      }
    }
  }
}
node {
  name: "report_uninitialized_variables/boolean_mask/Gather"
  op: "Gather"
  input: "report_uninitialized_variables/boolean_mask/Reshape"
  input: "report_uninitialized_variables/boolean_mask/Squeeze"
  device: "/device:CPU:0"
  attr {
    key: "Tindices"
    value {
      type: DT_INT64
    }
  }
  attr {
    key: "Tparams"
    value {
      type: DT_STRING
    }
  }
  attr {
    key: "_output_shapes"
    value {
      list {
        shape {
          dim {
            size: -1
          }
        }
      }
    }
  }
  attr {
    key: "validate_indices"
    value {
      b: true
    }
  }
}
node {
  name: "init"
  op: "NoOp"
  input: "^step/Assign"
  input: "^lr/Assign"
  input: "^GEN/fc1/weights/Assign"
  input: "^GEN/fc1/beta/Assign"
  input: "^GEN/fc1/gamma/Assign"
  input: "^GEN/fc1/moving_mean/Assign"
  input: "^GEN/fc1/moving_var/Assign"
  input: "^GEN/deconv1/weights/Assign"
  input: "^GEN/deconv1/beta/Assign"
  input: "^GEN/deconv1/gamma/Assign"
  input: "^GEN/deconv1/moving_mean/Assign"
  input: "^GEN/deconv1/moving_var/Assign"
  input: "^GEN/deconv2/weights/Assign"
  input: "^GEN/deconv2/beta/Assign"
  input: "^GEN/deconv2/gamma/Assign"
  input: "^GEN/deconv2/moving_mean/Assign"
  input: "^GEN/deconv2/moving_var/Assign"
  input: "^GEN/deconv3/weights/Assign"
  input: "^GEN/deconv3/beta/Assign"
  input: "^GEN/deconv3/gamma/Assign"
  input: "^GEN/deconv3/moving_mean/Assign"
  input: "^GEN/deconv3/moving_var/Assign"
  input: "^GEN/deconv4/weights/Assign"
  input: "^GEN/deconv4/beta/Assign"
  input: "^GEN/deconv4/gamma/Assign"
  input: "^GEN/deconv4/moving_mean/Assign"
  input: "^GEN/deconv4/moving_var/Assign"
  input: "^GEN/deconv6/weights/Assign"
  input: "^GEN/deconv6/beta/Assign"
  input: "^GEN/deconv6/gamma/Assign"
  input: "^GEN/deconv6/moving_mean/Assign"
  input: "^GEN/deconv6/moving_var/Assign"
  input: "^DIS/conv1/weights/Assign"
  input: "^DIS/conv1/beta/Assign"
  input: "^DIS/conv1/gamma/Assign"
  input: "^DIS/conv1/moving_mean/Assign"
  input: "^DIS/conv1/moving_var/Assign"
  input: "^DIS/conv2/weights/Assign"
  input: "^DIS/conv2/beta/Assign"
  input: "^DIS/conv2/gamma/Assign"
  input: "^DIS/conv2/moving_mean/Assign"
  input: "^DIS/conv2/moving_var/Assign"
  input: "^DIS/conv3/weights/Assign"
  input: "^DIS/conv3/beta/Assign"
  input: "^DIS/conv3/gamma/Assign"
  input: "^DIS/conv3/moving_mean/Assign"
  input: "^DIS/conv3/moving_var/Assign"
  input: "^DIS/conv4/weights/Assign"
  input: "^DIS/conv4/beta/Assign"
  input: "^DIS/conv4/gamma/Assign"
  input: "^DIS/conv4/moving_mean/Assign"
  input: "^DIS/conv4/moving_var/Assign"
  input: "^DIS/conv5/weights/Assign"
  input: "^DIS/conv5/beta/Assign"
  input: "^DIS/conv5/gamma/Assign"
  input: "^DIS/conv5/moving_mean/Assign"
  input: "^DIS/conv5/moving_var/Assign"
  input: "^DIS/conv6/weights/Assign"
  input: "^DIS/conv6/beta/Assign"
  input: "^DIS/conv6/gamma/Assign"
  input: "^DIS/conv6/moving_mean/Assign"
  input: "^DIS/conv6/moving_var/Assign"
  input: "^DIS/fc_out/weights/Assign"
  input: "^beta1_power/Assign"
  input: "^beta2_power/Assign"
  input: "^GEN/fc1/weights/Adam/Assign"
  input: "^GEN/fc1/weights/Adam_1/Assign"
  input: "^GEN/fc1/beta/Adam/Assign"
  input: "^GEN/fc1/beta/Adam_1/Assign"
  input: "^GEN/fc1/gamma/Adam/Assign"
  input: "^GEN/fc1/gamma/Adam_1/Assign"
  input: "^GEN/deconv1/weights/Adam/Assign"
  input: "^GEN/deconv1/weights/Adam_1/Assign"
  input: "^GEN/deconv1/beta/Adam/Assign"
  input: "^GEN/deconv1/beta/Adam_1/Assign"
  input: "^GEN/deconv1/gamma/Adam/Assign"
  input: "^GEN/deconv1/gamma/Adam_1/Assign"
  input: "^GEN/deconv2/weights/Adam/Assign"
  input: "^GEN/deconv2/weights/Adam_1/Assign"
  input: "^GEN/deconv2/beta/Adam/Assign"
  input: "^GEN/deconv2/beta/Adam_1/Assign"
  input: "^GEN/deconv2/gamma/Adam/Assign"
  input: "^GEN/deconv2/gamma/Adam_1/Assign"
  input: "^GEN/deconv3/weights/Adam/Assign"
  input: "^GEN/deconv3/weights/Adam_1/Assign"
  input: "^GEN/deconv3/beta/Adam/Assign"
  input: "^GEN/deconv3/beta/Adam_1/Assign"
  input: "^GEN/deconv3/gamma/Adam/Assign"
  input: "^GEN/deconv3/gamma/Adam_1/Assign"
  input: "^GEN/deconv4/weights/Adam/Assign"
  input: "^GEN/deconv4/weights/Adam_1/Assign"
  input: "^GEN/deconv4/beta/Adam/Assign"
  input: "^GEN/deconv4/beta/Adam_1/Assign"
  input: "^GEN/deconv4/gamma/Adam/Assign"
  input: "^GEN/deconv4/gamma/Adam_1/Assign"
  input: "^GEN/deconv6/weights/Adam/Assign"
  input: "^GEN/deconv6/weights/Adam_1/Assign"
  input: "^GEN/deconv6/beta/Adam/Assign"
  input: "^GEN/deconv6/beta/Adam_1/Assign"
  input: "^GEN/deconv6/gamma/Adam/Assign"
  input: "^GEN/deconv6/gamma/Adam_1/Assign"
  input: "^beta1_power_1/Assign"
  input: "^beta2_power_1/Assign"
  input: "^DIS/conv1/weights/Adam/Assign"
  input: "^DIS/conv1/weights/Adam_1/Assign"
  input: "^DIS/conv1/beta/Adam/Assign"
  input: "^DIS/conv1/beta/Adam_1/Assign"
  input: "^DIS/conv1/gamma/Adam/Assign"
  input: "^DIS/conv1/gamma/Adam_1/Assign"
  input: "^DIS/conv2/weights/Adam/Assign"
  input: "^DIS/conv2/weights/Adam_1/Assign"
  input: "^DIS/conv2/beta/Adam/Assign"
  input: "^DIS/conv2/beta/Adam_1/Assign"
  input: "^DIS/conv2/gamma/Adam/Assign"
  input: "^DIS/conv2/gamma/Adam_1/Assign"
  input: "^DIS/conv3/weights/Adam/Assign"
  input: "^DIS/conv3/weights/Adam_1/Assign"
  input: "^DIS/conv3/beta/Adam/Assign"
  input: "^DIS/conv3/beta/Adam_1/Assign"
  input: "^DIS/conv3/gamma/Adam/Assign"
  input: "^DIS/conv3/gamma/Adam_1/Assign"
  input: "^DIS/conv4/weights/Adam/Assign"
  input: "^DIS/conv4/weights/Adam_1/Assign"
  input: "^DIS/conv4/beta/Adam/Assign"
  input: "^DIS/conv4/beta/Adam_1/Assign"
  input: "^DIS/conv4/gamma/Adam/Assign"
  input: "^DIS/conv4/gamma/Adam_1/Assign"
  input: "^DIS/conv5/weights/Adam/Assign"
  input: "^DIS/conv5/weights/Adam_1/Assign"
  input: "^DIS/conv5/beta/Adam/Assign"
  input: "^DIS/conv5/beta/Adam_1/Assign"
  input: "^DIS/conv5/gamma/Adam/Assign"
  input: "^DIS/conv5/gamma/Adam_1/Assign"
  input: "^DIS/conv6/weights/Adam/Assign"
  input: "^DIS/conv6/weights/Adam_1/Assign"
  input: "^DIS/conv6/beta/Adam/Assign"
  input: "^DIS/conv6/beta/Adam_1/Assign"
  input: "^DIS/conv6/gamma/Adam/Assign"
  input: "^DIS/conv6/gamma/Adam_1/Assign"
  input: "^DIS/fc_out/weights/Adam/Assign"
  input: "^DIS/fc_out/weights/Adam_1/Assign"
}
node {
  name: "init_1"
  op: "NoOp"
}
node {
  name: "init_all_tables"
  op: "NoOp"
}
node {
  name: "group_deps"
  op: "NoOp"
  input: "^init_1"
  input: "^init_all_tables"
}
versions {
  producer: 24
}
